CIFAR10/saved_model/CIFAR10Model_state_dict.pth (torch, 84240 bytes, 4 tensors)

conv1.weight f4 [9, 3, 3, 3]
000000 ed c6 b8 be 47 60 1a be f0 1b a4 3c 55 e1 ad be
       -0.36089268 -0.1507579 0.020032853 -0.33960977
000010 a7 cb ea be 0b 51 43 bf 3f 7e b8 3e 77 c9 84 3e
       -0.458585 -0.76295537 0.36033818 0.25934955
000020 2e 01 5c 3d 00 02 8f be 0e 29 93 be 99 26 38 3e
       0.053712063 -0.27931213 -0.2874226 0.17983474
000030 9b fc 02 be 44 7e d5 be b7 29 27 bf 0d 60 ed 3e
       -0.12791674 -0.41697896 -0.65298027 0.46362343
000040 43 42 d0 3e b7 2c 2b be 02 d8 40 bc d8 fa 35 3e
       0.40675554 -0.16716276 -0.01177025 0.1777147
000050 13 17 c1 3d 00 8c 3b 3e c3 14 47 bd a1 e5 83 be
       0.09428229 0.18315125 -0.048603784 -0.2576113
000060 6e 37 34 3f ae cd 26 3f f0 0a 31 3c 56 69 58 3f
       0.7039708 0.6515759 0.01080583 0.8453573
000070 90 3e fd 3e 1d 5c ee bb 48 ad 5b be c4 8f cf be
       0.49461794 -0.0072741644 -0.2145282 -0.40539372
000080 67 af 85 be 39 26 11 be 0b 73 b1 3e dc 9e bd 3e
       -0.26110384 -0.14174737 0.34658083 0.37035263
000090 5c e3 9c 3e e9 49 f2 bd 92 6a f2 be 35 f3 0d bf
       0.3064221 -0.118305035 -0.47346932 -0.5544923
0000a0 53 30 3b bf 8d 7b d4 be 42 e0 11 bf d9 73 09 bd
       -0.7312061 -0.41500512 -0.56982815 -0.033557747
0000b0 9f f8 ba 3e 48 33 f6 3e 02 75 1a be 31 2d b6 be
       0.36517808 0.48086 -0.15083697 -0.35581353
0000c0 0f 93 ab be 2d e3 13 bf ae 9b 03 be e7 3d 00 be
       -0.33510634 -0.5776852 -0.12852356 -0.12523614
0000d0 af 54 25 3e 4a c8 14 3f 47 a4 81 3e 2f d9 0b bf
       0.16145585 0.58118117 0.25320646 -0.5462827
0000e0 b8 95 73 bd 17 cc 47 bf c9 a3 93 bf df d2 cb bd
       -0.059468955 -0.7804579 -1.1534358 -0.0995233
0000f0 b3 93 eb 3e e5 2e e8 3e aa 1f 44 3f 38 23 47 3f
       0.46011123 0.45348278 0.76610816 0.77788115
000100 c6 2e fc 3d aa be c3 3e e0 bc b6 be 27 a6 1a bf
       0.12313609 0.38231403 -0.35690975 -0.6040978
000110 9a cf 6b bc ca 81 8e 3e 6b 55 29 3f 12 83 65 3f
       -0.014392758 0.27833396 0.6614596 0.8965312
000120 b8 ef 0d 3f 9d 1b 1f 3e ff 53 a8 bd 07 ea 47 bf
       0.55443907 0.15537877 -0.08219146 -0.7809147
000130 d2 95 61 bf 30 a4 81 bd b6 1d 5f 3e 73 ca 40 3e
       -0.8811923 -0.063301444 0.21788678 0.18827228
000140 ce 13 e3 3d 28 b0 6c 3e da 5f 00 3f e2 18 b4 3e
       0.11087762 0.23114073 0.5014626 0.35175234
000150 21 0a 00 3f ef 51 d4 3e f0 26 f3 3e 57 ec 08 3f
       0.50015455 0.4146876 0.47490644 0.53485626
000160 ae c4 9c 3e 24 a4 b0 3e 8e ba 83 be 5a e4 01 bf
       0.30618805 0.3450023 -0.25728267 -0.5073906
000170 3d 5f d8 be 40 63 a3 be 1e a3 c7 be 5e 7f 7d be
       -0.4226016 -0.3191166 -0.38991636 -0.24755618
000180 ad b7 e8 be 73 6b b0 be 94 cd 98 be 7a 7b 4d 3e
       -0.45452634 -0.34456977 -0.29844344 0.20066634
000190 a4 ab 86 3c 41 26 e6 3d e2 fb 53 bd 52 d8 a9 3d
       0.016439267 0.11237765 -0.051753886 0.08293213
0001a0 e8 fe 6a 3c 16 f7 22 3e fe de 67 3e da 8f 12 3e
       0.014343001 0.15914568 0.22643659 0.14312688
0001b0 c8 99 17 be 72 d6 5c 3f f7 de 41 3d ac ba 56 bf
       -0.14804757 0.8626472 0.047331776 -0.8387859
0001c0 39 59 38 be d2 8f 73 3f c8 ee 5e 3c 87 ec 66 bf
       -0.18002786 0.9514133 0.013606735 -0.9020466
0001d0 b1 47 ec 3e 23 08 97 be 9c c7 57 3f 9a 1f 2a bd
       0.46148446 -0.29498395 0.84288955 -0.041534044
0001e0 fa 55 37 bf a2 90 80 3d 20 c4 5e 3f 90 86 35 be
       -0.71615565 0.062775865 0.87018013 -0.17727113
0001f0 c2 03 73 bf d2 1e 5d 3e c0 69 a5 be 3d e3 35 3f
       -0.9492761 0.21593788 -0.32307243 0.71049863
000200 4b be bd bd 7d c7 64 bf 6d 27 09 3d 18 04 56 3f
       -0.09264811 -0.89366895 0.033484865 0.83599997
000210 5a 34 3d 3e af 6e 89 bf 73 3c e5 3d 6f 2b 1a bf
       0.18477002 -1.0736903 0.111931704 -0.60222524
000220 56 0a 0a bf 7e 5b e6 be 9c 58 96 3e 72 70 ad 3e
       -0.5392202 -0.44991678 0.2936448 0.3387485
000230 04 f7 0c be 5d 61 e5 3e aa 51 05 3f 8a 9e 16 3f
       -0.13766104 0.44800845 0.52077734 0.5883566
000240 2d 7c 00 bf c8 1d ad be 65 c5 d4 bd 45 c5 91 3e
       -0.5018948 -0.33811784 -0.103892125 0.28470817
000250 37 0e 91 3e 17 35 62 3e 9f 37 76 3e e4 94 64 3e
       0.28331158 0.22090565 0.24044655 0.22322422
000260 a8 a1 0d 3f 9a b1 28 bf 38 0a 1e bf 2f 6a 13 bf
       0.5532479 -0.65896 -0.6173434 -0.575839
000270 e6 5d 09 3e f9 cc 26 be e4 a1 a0 be dc de eb 3d
       0.13414726 -0.16289128 -0.31373513 0.115171164
000280 96 d8 57 3e 7e 51 04 3e 40 39 d9 3e af bf c4 3e
       0.21078715 0.12921712 0.4242649 0.38427493
000290 23 e1 a6 3d d6 88 f7 be 33 53 19 bf cd f5 1d bf
       0.0814841 -0.48346585 -0.59892577 -0.6170319
0002a0 13 04 88 be 8c ca bf be 25 28 7f be b8 5e 2a 3e
       -0.26565608 -0.37459219 -0.24917658 0.16637695
0002b0 61 2d 49 3e 42 64 9b 3e 8b bb 78 be 14 fa e5 be
       0.19646217 0.30349928 -0.24290292 -0.44917357
0002c0 4f 60 f7 be 80 c5 d0 be d4 39 ea be 77 94 3a bd
       -0.48315665 -0.4077568 -0.45747244 -0.045551743
0002d0 5b f0 2b 3f fb 84 15 3f 9d cc 39 3f e0 fe ca 3e
       0.6716363 0.5840604 0.7257784 0.3964758
0002e0 31 70 a3 3e ae ea 8d bd c7 db 0a bd c7 fd ab 3e
       0.31921533 -0.06929527 -0.033901002 0.33592054
0002f0 f0 38 bc 3e cf 8d 97 bf 2a 0f 21 be f8 52 86 3f
       0.3676219 -1.1840152 -0.15728441 1.049407
000300 ee 81 65 3e f4 2d 1e 3e 85 8b 04 bf c5 f3 55 3f
       0.22412845 0.15447217 -0.5177539 0.8357509
000310 ae 16 02 be 9b b7 57 bf 84 21 8b bf 1a ba 11 3d
       -0.12703964 -0.84264535 -1.0869603 0.03557787
000320 f2 15 95 3f 08 d4 ee 3e 07 5f d9 3e 9b 64 a4 be
       1.1647322 0.46646142 0.42455313 -0.32108006
000330 ad eb 8e 3f 02 0f b6 bd 17 e6 f8 be af 6c 9b bf
       1.1165673 -0.08889581 -0.48613045 -1.2142543
000340 10 6b ef 3d 99 68 8b 3f 58 af ea 3d 9e 08 40 3e
       0.116903424 1.0891296 0.114592254 0.18753287
000350 10 cb 3a bf 4b 17 40 3f f1 86 e4 be eb c3 55 bf
       -0.729661 0.7503554 -0.44634202 -0.8350207
000360 73 31 1b 3d 1a 43 5d bf 0a 4b 08 3f 5e 5b 6c be
       0.037888955 -0.86430514 0.532395 -0.23081729
000370 25 96 21 bf 8f e4 6a 3f 77 20 27 bf 9f 18 0b bd
       -0.6311973 0.91755 -0.6528391 -0.033959027
000380 19 13 4a 3f 7c 19 8d bc 79 b4 78 bf ee c0 48 3f
       0.7893539 -0.017224066 -0.9715038 0.7841939
000390 7b c4 5d be 5a 41 3e bf ad 74 4e 3f 3c 3d 2b bf
       -0.21656983 -0.7431847 0.80646783 -0.6689031
0003a0 ee f2 2f 3d b2 de 50 3f 2b 2e 92 be ef 62 6f bf
       0.042956285 0.81589806 -0.28550848 -0.93510336
0003b0 cf 68 0a 3f cc 06 cf be a3 3e 18 bf c3 ef 82 3f
       0.54066175 -0.40434873 -0.59470576 1.022942
0003c0 78 ac dc be 9e 7c 64 bd 57 54 58 3f
       -0.43100333 -0.055782907 0.8450369

conv1.bias f4 [9]
000000 24 06 13 3e 4b 93 b2 3e 06 09 13 bf 85 bd 31 bf
       0.14357811 0.34878 -0.57435644 -0.6942981
000010 8e e0 60 be c6 eb 94 be 74 1b 5c be 64 68 9a be
       -0.21960661 -0.2908613 -0.21494848 -0.3015777
000020 9f fe 3c be
       -0.18456505

linear.weight f4 [10, 2025]
000000 5d 5e b6 3c e6 d0 2e 3d fb 61 e9 3c 64 07 3d 3b
       0.022261793 0.04267969 0.028489104 0.0028843516
000010 c7 db 07 3d df 10 3a bc 8e 83 31 bd 07 71 e4 bc
       0.03316858 -0.011356561 -0.04333835 -0.027885927
000020 9d 5d dd 3c f4 d8 5d 3c e4 18 dd 3c 74 73 41 bd
       0.027022177 0.013540495 0.026989408 -0.047229245
000030 64 5b 79 bd 93 5f b9 bc 76 ba 3a bd d9 3a 2f 3d
       -0.060878173 -0.022628581 -0.04558798 0.04278073
000040 f5 1d eb 3b 6f 83 65 3c 2f 0e 75 3d 54 c1 61 3d
       0.007175202 0.014008387 0.05982798 0.055116013
000050 d3 6a f8 3b 51 0c eb 3b 7e c0 e4 bc 4a 0d 7a bd
       0.007581094 0.007173099 -0.027923819 -0.06104783
000060 ce f0 48 bd 7f 59 3b bd be e5 55 bd 17 58 b7 bd
       -0.049057774 -0.045739647 -0.052221052 -0.08952349
000070 06 24 9a bd c9 ca 41 bc 90 bb 79 3c 83 27 12 3d
       -0.07526402 -0.011828133 0.015242472 0.035682213
000080 99 e4 40 3c 08 0f b3 3c e0 1b b6 3c 09 4e 8b 3c
       0.011773252 0.021857753 0.022230089 0.017004983
000090 b2 44 b9 3b 0b 9f 14 bd 4b 6c 3f bd cb 20 47 bd
       0.005653941 -0.036284488 -0.046734136 -0.04861526
0000a0 59 e2 b1 bd 18 f7 d8 bd 9e 06 1d bd 93 b7 fe b9
       -0.086857505 -0.105940044 -0.03833639 -0.0004858343
0000b0 38 13 a6 bc 39 19 74 3d 5f bd 4b 3d cb ae f4 3c
       -0.020272836 0.059594367 0.049741145 0.029868504
0000c0 e2 ee d2 bc bd 2e 89 3d 34 30 79 bc fb af 39 3d
       -0.025748674 0.06698368 -0.015209246 0.045333844
0000d0 83 57 fb 3c f2 56 e5 bc 0a cf 78 bd 51 c8 83 bd
       0.030681377 -0.02799556 -0.060744323 -0.06434692
0000e0 01 bb 3f bd e5 0e a0 bd cc a3 3c bd c0 4d f3 bc
       -0.0468092 -0.07815341 -0.046054646 -0.02970016
0000f0 6b 0f ed 3d 36 a8 8e 3d 44 23 15 3e 85 ce b1 3d
       0.11575206 0.069656774 0.14564234 0.086819686
000100 d9 36 cd 3c ad 00 70 bb 28 81 3d 3c 0f b0 df bc
       0.025050567 -0.0036621497 0.011566438 -0.027305631
000110 02 24 81 bd dc b0 53 bd 2c 0f 34 bd 57 fa d1 bc
       -0.06305696 -0.051682338 -0.04395978 -0.025632067
000120 6e 4f 25 bd b4 e5 83 bd 63 ed 6b bd b3 47 1f bc
       -0.040358953 -0.06440297 -0.057599436 -0.009721684
000130 c4 1f 85 3d e3 0d b4 3d 2c 4b 4c 3d af 3f 3c 3c
       0.065001994 0.08791711 0.049876377 0.011489793
000140 1b b0 9a 3d c5 16 2b 3d d4 41 b6 3c c9 d8 0c bd
       0.07553121 0.04176976 0.022248186 -0.03438643
000150 c7 5f a6 bd 2c 6f 7e bd d3 a0 87 bd ad f1 7c bd
       -0.08123737 -0.06211774 -0.06622472 -0.061753917
000160 68 f1 33 3c 7a e7 19 3b a8 19 99 bb dc 1b f5 3b
       0.010982849 0.0023483918 -0.004672248 0.0074801277
000170 1e 0b 0a 3e 16 8a 35 3d 66 9b b3 3d 16 21 c3 3d
       0.13480803 0.044321142 0.08769874 0.09527795
000180 0e fd e6 3d 1e 9a 95 3c 07 ba 81 bb ed 57 82 3c
       0.11278735 0.018261965 -0.0039589438 0.015911067
000190 90 62 6e bc cd e0 50 bd 32 37 6c 3b 12 fb 65 bd
       -0.014549866 -0.050995637 0.003604364 -0.056147642
0001a0 1c 1d 70 bd d4 80 b1 3c 77 6e 0b 3c f9 1f 5c 3a
       -0.05862151 0.021667875 0.008510224 0.0008397098
0001b0 b9 36 87 3d 24 5e 1f 3d 5b 2a 85 3d e8 94 39 3c
       0.066022344 0.03890814 0.06502219 0.011327006
0001c0 fd 0d 12 bc 36 30 a7 3c 1e e3 8b bb ba 9d 36 3d
       -0.008914468 0.020408731 -0.004269018 0.044584014
0001d0 60 0d 59 bd 89 71 32 bd 23 1f e4 bd d9 69 a7 bd
       -0.05299127 -0.043565307 -0.11138751 -0.08174486
0001e0 65 59 37 3d 08 45 1f ba bb 02 5c bb dc 6c 5e 3d
       0.044762988 -0.0006075655 -0.0033570963 0.054303035
0001f0 e2 e8 b0 bb f1 d7 08 bd 16 fe 6e 3d 03 67 31 bc
       -0.0053988555 -0.033409063 0.058347784 -0.010827783
000200 b1 f9 4f 3d 26 c9 c2 3c da e0 cf 3c 7b de d3 3c
       0.050775234 0.023777556 0.025375772 0.025862923
000210 9f 60 d9 ba 40 30 7d bb 77 81 0f 3d 78 ac 4c bd
       -0.0016584581 -0.0038633496 0.035035577 -0.049969167
000220 52 38 47 bd 4f d1 1d bd d9 d7 b1 3c e1 1e 9a bd
       -0.048637696 -0.03852969 0.02170937 -0.07525421
000230 58 46 39 bd 9c 09 b2 3c 18 9a 7b 3d 7d a1 6e 3d
       -0.0452331 0.021733098 0.061426252 0.058259476
000240 e9 62 a2 3d 29 cd 23 3d 2e 49 6b 3d af 2b 8d 3c
       0.07929022 0.039990578 0.057442836 0.017232744
000250 7b 3a ba 39 be 7b 98 bc 1e a7 8d bd 39 f2 15 bd
       0.00035520256 -0.018613692 -0.06916641 -0.036607955
000260 f3 6c fd bc 41 91 1f bd 40 28 95 3c 42 fe 5e bd
       -0.03093574 -0.038956884 0.01820767 -0.054441698
000270 05 1c 1f bc a5 47 5d 3a 17 c7 5b 3d 49 f8 f1 3c
       -0.00971127 0.0008441157 0.053656664 0.029537337
000280 95 3c 22 3c 65 b0 6c 3d 71 83 a1 3d 30 91 ee 3b
       0.009902139 0.05778541 0.078863986 0.0072804913
000290 9e 09 22 bd 87 80 bc bc 9c 8d 14 bd 20 d5 80 bd
       -0.039559953 -0.023010505 -0.03626786 -0.0629065
0002a0 a3 64 06 bd 24 c3 67 3c 5a 43 8b bd ed 3d 83 bd
       -0.03281082 0.014145646 -0.06799956 -0.06408296
0002b0 a0 5b 3f 3d 8c 44 e1 3b 7d 98 14 bd 6d c7 f4 3d
       0.04671824 0.0068746265 -0.036278237 0.119521
0002c0 d7 86 64 3d 05 cd 91 3d cb f8 5e 3d 4d 50 88 bd
       0.055792656 0.071191825 0.054436486 -0.06655941
0002d0 57 6e 49 bd 93 ab 89 bd b4 11 79 bd fe 96 e8 bd
       -0.049177494 -0.06722178 -0.0608079 -0.113569245
0002e0 29 4a 4d bd 30 3c 3a bd 04 78 d5 bd cd e0 02 bd
       -0.050119553 -0.045467556 -0.10423282 -0.031952668
0002f0 34 96 b1 3c 4a 4b 58 3d 05 a3 75 3d 0e 42 8f 3d
       0.021678068 0.052806176 0.05996992 0.06995021
000300 c9 cf b1 3d a7 42 96 3d f5 80 b1 bc c6 39 69 bd
       0.0868221 0.07336932 -0.021667937 -0.056939863
000310 46 68 53 bb 93 d4 9b bc 95 e0 e0 bd d2 07 1d bd
       -0.0032258197 -0.019022262 -0.109803356 -0.038337536
000320 54 56 13 bd 30 60 94 bc 82 8a 0a bd d5 44 0a bd
       -0.035971 -0.018112272 -0.033823498 -0.03375705
000330 54 62 16 3d e7 34 ca 3d 19 04 da 3d 16 a9 9b 3d
       0.036714867 0.098733716 0.10645313 0.0760061
000340 aa db 9a 3c b9 03 ae 3b 08 29 1c bd e2 18 34 bd
       0.018903572 0.0053105024 -0.038125068 -0.043969043
000350 ee 10 16 bd 7e 35 36 bd 41 30 b0 3b 4b 70 20 bc
       -0.03663724 -0.044484608 0.005376846 -0.009792398
000360 d0 db ac bc e9 37 8c 3d 08 f2 f7 3d 2e d8 b0 bb
       -0.021100909 0.068466015 0.12106711 -0.0053968644
000370 1b e2 89 3c 7d ad b7 3c a9 f8 20 3d 63 8f 59 3d
       0.016831448 0.022421593 0.03929964 0.05311526
000380 af 18 2b 3d 52 85 6c 3d 14 24 34 bd 11 06 b3 3c
       0.041771587 0.05774433 -0.04397972 0.021853479
000390 06 4b 3c bd 21 45 b2 bd 1a 55 7d bd 0b 80 49 bc
       -0.045969985 -0.087045915 -0.061848737 -0.012298594
0003a0 9c d7 27 3d 0a ee e0 3c 98 26 e3 3c 11 f2 7a 3d
       0.040977105 0.027457256 0.027728364 0.06126601
0003b0 e0 85 54 bd 82 2a 13 bd d6 36 3f bd 31 71 8b bb
       -0.051885486 -0.03592921 -0.046683155 -0.004255437
0003c0 b5 ad 5b 3c f9 92 43 bd 54 70 94 bd 7c 9d e1 bd
       0.013408114 -0.047747586 -0.072479874 -0.11016366
0003d0 25 13 82 bd 29 01 1b 3d 4e 1b c8 bc 07 28 f0 bc
       -0.06351308 0.037842903 -0.024427082 -0.029315962
0003e0 41 67 56 bd ca 7d 6b 3c c1 c3 5c bc f9 b5 de 3b
       -0.052344564 0.014373252 -0.013474406 0.006796595
0003f0 0f b2 25 3b 29 43 17 3d ca 78 d7 bc b9 fb 09 bd
       0.0025283133 0.036929283 -0.026302714 -0.033687327

linear.bias f4 [10]
000000 d7 bd 49 be 38 cc 32 be 8c 12 c9 3e 1d dc 3d 3f
       -0.19701324 -0.17460716 0.39271963 0.7416399
000010 ba fc d7 3e cc 0c 28 bd a8 1b 1a be 68 42 b1 be
       0.42185003 -0.04102783 -0.15049613 -0.34620976
000020 d3 2c 9e be 21 22 b5 be
       -0.30893573 -0.353776
