image-classification/FashionMNIST/trained_models/fashion_cnn.pth (torch, 830896 bytes, 8 tensors)

conv1.weight f4 [16, 1, 3, 3]
-0.10823571 -0.21394253 -0.19221702 -0.23126735 -0.16303417 -0.37783936 0.38480496 0.11128918
0.10670787 -0.66673446 -0.35244417 0.45096225 -0.5365937 0.34797508 0.064278916 0.26511616
0.39467055 0.119537786 0.38865188 -0.16235459 0.15592046 0.55218315 -0.16773804 -0.3805843
-0.06877749 0.1385189 -0.47809625 0.03336954 0.012548207 0.1553634 0.11296661 0.28576976
0.46472332 -0.023126338 0.093801096 0.31026757 -0.3170799 -0.3921983 0.32577312 0.42768896
0.36289415 -0.007439086 -0.0072636963 -0.29607263 -0.31409147 0.0067010843 -0.1885586 0.1778825
0.19430383 0.38965634 -0.039071687 0.013312273 0.5247415 -0.023507541 0.0105605805 -0.54396236
-0.23319991 0.16516829 0.3679157 0.40493724 -0.11188996 -0.060629983 0.12511617 -0.16192614
-0.21792877 0.31607494 -0.5003234 0.1282851 0.3654569 0.05945422 0.5026801 -0.5381201
0.02828097 -0.09170426 -0.3887077 0.123390965 0.45766222 -0.22689244 -0.6157502 0.32424667
0.43959066 0.3663517 0.31959924 -0.1977586 0.004767188 0.48354787 -0.11374836 -0.65267235
-0.49694425 0.29599026 0.19581635 0.073744275 -0.065384515 -0.5676241 -0.53495985 0.3504623
-0.39741698 0.11576959 0.06193387 0.15052752 -0.36068004 0.2652886 0.21324024 -0.35356364
0.14185676 -0.12346443 -0.39977372 0.51397663 0.17054082 0.055797927 0.049083136 -0.4310535
-0.074041806 0.14125966 -0.29169232 -0.36741087 -0.16533774 -0.0022451612 -0.2843254 -0.26523414
0.14874917 0.44270527 -0.19898605 0.28612357 0.37364647 -0.56061506 -0.020662153 -0.048628196
0.2751178 -0.5016424 0.13261989 0.40648758 -0.45938298 -0.31058627 0.53325474 -0.29457003
0.18750896 -0.22441614 -0.6440624 0.2655278 0.13906229 0.2158426 0.24842666 -0.058987193
00000000: afaa ddbd c013 5bbe 8ad4 44be 59d1 6cbe
00000010: 6ef2 26be 2974 c1be 2805 c53e 95eb e33d
00000020: a889 da3d 1caf 2abf 9073 b4be 86e4 e63e
00000030: 345e 09bf ca29 b23e aaa4 833d 4ebd 873e
00000040: 4212 ca3e 3ad0 f43d 61fd c63e 4840 26be
00000050: 9da9 1f3e e05b 0d3f 85c3 2bbe f2db c2be
00000060: 36db 8cbd e6d7 0d3e 08c9 f4be 80ae 083d
00000070: ff96 4d3c 9517 1f3e 0a5b e73d 6a50 923e
00000080: 37f0 ed3e 7273 bdbc ca1a c03d 64db 9e3e
00000090: 4c58 a2be 37ce c8be bccb a63e 0cfa da3e
000000a0: 43cd b93e 94c3 f3bb 4d04 eebb d596 97be
000000b0: 99d0 a0be c594 db3b 8115 41be d526 363e
000000c0: 95f7 463e 0981 c73e a209 20bd b81b 5a3c
000000d0: 7555 063f e392 c0bc 4906 2d3c 1e41 0bbf
000000e0: f5cb 6ebe e021 293e 725f bc3e ef53 cf3e
000000f0: 9026 e5bd 2557 78bd 741e 003e f7cf 25be
00000100: b828 5fbe 93d4 a13e 3215 00bf 2b5d 033e
00000110: 2b1d bb3e 4586 733d a5af 003f 3dc2 09bf
00000120: 7ead e73c 71cf bbbd b204 c7be 67b4 fc3d
00000130: b452 ea3e 7e56 68be cea1 1dbf a903 a63e
00000140: 0712 e13e 7392 bb3e 83a2 a33e 3b81 4abe
00000150: 1236 9c3b 9693 f73e e6f4 e8bd 8915 27bf
00000160: 7a6f febe 098c 973e 1584 483e 3d07 973d
00000170: 51e8 85bd d04f 11bf 21f3 08bf cb6f b33e
00000180: 3d7a cbbe 9b18 ed3d 5fae 7d3d e323 1a3e
00000190: 0eab b8be e8d3 873e a65b 5a3e 4b06 b5be
000001a0: e642 113e ebda fcbd 24af ccbe f993 033f
000001b0: 41a2 2e3e 5e8c 643d 660b 493d 0bb3 dcbe
000001c0: 3ba3 97bd 5fa6 103e b258 95be 471d bcbe
000001d0: 4c4e 29be 8e23 13bb 1993 91be c5cc 87be
000001e0: b451 183e 44aa e23e 00c3 4bbe ca7e 923e
000001f0: 974e bf3e 7884 0fbf ad43 a9bc 5c2e 47bd
00000200: 3edc 8c3e a36b 00bf 82cd 073e 241f d03e
00000210: 3f34 ebbe 2a05 9fbe 6283 083f e2d1 96be
00000220: 5902 403e 58cd 65be 46e1 24bf 43f3 873e
00000230: 5866 0e3e d805 5d3e 8f63 7e3e 8e9c 71bd

conv1.bias f4 [16]
-0.32176515 -0.16076846 0.12328241 -0.53338706 -0.027123865 0.07980997 0.020277493 0.034504205
0.14372537 -0.0012823575 -0.46889085 -0.008978895 -0.5772727 0.11911237 0.072722346 -0.044711165
00000000: 67be a4be 7da0 24be 7d7b fc3d 0e8c 08bf
00000010: de32 debc 6973 a33d fc1c a63c 4854 0d3d
00000020: be2c 133e c714 a8ba 7612 f0be 371c 13bc
00000030: 25c8 13bf 30f1 f33d 74ef 943d 0e23 37bd

conv2.weight f4 [32, 16, 3, 3]
-0.31694058 -0.110430546 -0.10996843 0.06617233 0.11891708 0.032201245 0.08726236 0.070217505
0.04338393 0.005293767 -0.2664058 -0.08680955 -0.28637198 0.28197274 0.13947657 -0.1162065
0.18099979 0.053786293 0.06300958 0.09444404 -0.030199794 0.026007738 -0.19644211 -0.09214836
-0.0026168297 -0.2115714 -0.08588955 0.33846086 0.17927279 0.08760589 -0.11588804 0.0016731651
-0.26336485 -0.096141234 -0.12837185 0.022901103 0.06522 0.046432775 -0.10166145 -0.24143666
-0.019582938 0.07284954 -0.043585468 -0.086365 -0.022620896 0.13860583 0.16072863 -0.036182337
0.04866824 -0.013983102 0.10598749 0.03980624 -0.10579386 -0.016789543 0.1294307 0.040587425
-0.17176567 0.038017802 0.10216285 -0.03758388 0.12818363 0.06426763 0.17344895 0.07435875
-0.16167285 0.02536015 -0.10460591 0.32962975 0.00038717766 -0.15138423 0.15910806 0.09745099
-0.32481754 -0.0056730546 -0.17092977 0.16498595 -0.19477682 -0.12482991 0.16552556 0.16099063
0.15021773 0.27064598 0.3877676 0.0018537117 -0.28956348 -0.110689685 -0.059911974 -0.2598261
-0.3397669 -0.021641817 -0.053530492 0.060678616 0.085347466 0.08626385 0.23950216 0.09779737
-0.13217056 -0.18055971 -0.17632732 -0.13317588 0.0026933379 0.010023033 0.013260902 -0.050705243
-0.048486277 0.23126704 -0.02453425 -0.030989781 0.18185654 0.18974772 0.067701526 0.15609889
0.16816251 0.05328173 -0.036740642 -0.17298715 -0.22795835 -0.1561729 -0.21697646 -0.19647017
0.074649 -0.035587486 0.004133971 0.057073683 -0.047707852 0.10919939 -0.02478613 -0.09575629
0.11069895 -0.13586235 -0.048625983 -0.01708351 0.066847146 -0.149824 -0.09988252 -0.26995072
-0.38771385 -0.09971048 -0.19680929 0.402216 -0.042680185 0.027843794 0.2920096 0.15191084
0.003254216 -0.27870995 -0.34146497 -0.013603957 0.111765236 -0.12860055 0.045849856 0.042533476
0.024466699 -0.08636624 -0.03239838 -0.16189991 -0.4963558 -0.24255665 0.1514377 -0.11734711
-0.08411649 -0.08071384 -0.027380545 0.16661568 0.21541715 -0.13814059 0.024268562 -0.09870982
-0.22959237 0.025944293 -0.16139881 0.18245035 0.07725175 -0.18626304 0.09193826 0.051967144
-0.14533839 -0.11920376 -0.07220279 0.024542868 0.11227739 -0.20322646 -0.048364487 -0.07337284
-0.25084198 -0.13373941 -0.01254921 -0.069935195 0.04857075 0.045654215 0.1460579 -0.036984358
-0.008405623 0.10562822 -0.068485655 -0.017392598 -0.06833507 -0.029894197 0.12679417 0.01748209
-0.1256135 -0.056953207 -0.091430746 -0.07219838 0.01351226 -0.122321025 0.066891804 0.05209358
0.276294 0.011452764 -0.19498529 0.0754773 0.3539705 0.13150822 0.17475474 0.11349335
0.006388126 -0.020347113 -0.005900783 -0.10720878 0.23519221 -0.08849125 0.036358718 0.19313785
-0.034953002 -0.08331828 0.1998391 0.19199057 0.19219695 0.30709442 -0.06982118 0.09156572
0.10414549 -0.096330374 -0.389319 -0.31467217 -0.001777633 -0.19781107 -0.044507276 0.04695574
0.17406097 -0.36428887 -0.044809237 0.07239806 0.03674358 0.111133166 0.015964355 0.2753607
0.06630197 0.12975442 0.09498857 -0.04399675 -0.1406241 -0.13380118 0.12159451 0.22414647
00000000: 0946 a2be 6929 e2bd 2137 e1bd 5c85 873d
00000010: cc8a f33d 74e5 033d 9cb6 b23d 32ce 8f3d
00000020: 59b3 313d 5677 ad3b 5766 88be 35c9 b1bd
00000030: 599f 92be bb5e 903e f2d2 0e3e acfd edbd
00000040: 0258 393e 044f 5c3d 2b0b 813d e06b c13d
00000050: 8f65 f7bc 2e0e d53c 1f28 49be 48b8 bcbd
00000060: 1e7f 2bbb 2ca6 58be dce6 afbd be4a ad3e
00000070: 4993 373e b86a b33d b556 edbd 1b4e db3a
00000080: c2d7 86be b2e5 c4bd e973 03be 189b bb3c
00000090: 1092 853d 4b30 3e3d e133 d0bd 2c3b 77be
000000a0: 666c a0bc 2432 953d ad86 32bd 22e0 b0bd
000000b0: 754f b9bc b0ee 0d3e 0c96 243e ee33 14bd
000000c0: 5958 473d 6119 65bc f80f d93d de0b 233d
000000d0: 74aa d8bd 398a 89bc 7b89 043e 003f 263d
000000e0: 57e3 2fbe 8eb8 1b3d c23a d13d 8ef1 19bd
000000f0: 9242 033e bf9e 833d 9a9c 313e 6649 983d
00000100: 918d 25be 17c0 cf3c a03b d6bd 3bc5 a83e
00000110: 1bfe ca39 7804 1bbe 39ed 223e 6294 c73d
00000120: 7c4e a6be 08e5 b9bb 3708 2fbe 14f2 283e
00000130: 9373 47be d3a6 ffbd 887f 293e bada 243e
00000140: add2 193e 1c92 8a3e 7a89 c63e 3ef8 f23a
00000150: aa41 94be 46b1 e2bd 4266 75bd ed07 85be
00000160: edf5 adbe 2e4a b1bc ca42 5bbd 248a 783d
00000170: a7ca ae3d 1aab b03d 0e40 753e fd49 c83d
00000180: b857 07be a5e4 38be 268f 34be 425f 08be
00000190: b682 303b a637 243c 4144 593c 4db0 4fbd
000001a0: 8c99 46bd 44d1 6c3e 0dfc c8bc 48de fdbc
000001b0: 9a38 3a3e 3a4d 423e 19a7 8a3d 63d8 1f3e
000001c0: cb32 2c3e f13d 5a3d 5b7d 16bd 8b23 31be
000001d0: ea6d 69be caeb 1fbe 142f 5ebe 7a2f 49be
000001e0: 93e1 983d 2fc4 11bd 4376 873b 18c6 693d
000001f0: 4f69 43bd eea3 df3d 480c cbbc e01b c4bd
00000200: 22b6 e23d 801f 0bbe 0a2c 47bd b8f2 8bbc
00000210: 28e7 883d 766b 19be 358f ccbd fb36 8abe
00000220: 6e82 c6be 0235 ccbd 6088 49be 41ef cd3e
00000230: 6bd1 2ebd ab18 e43c 4882 953e 848e 1b3e
00000240: af44 553b 12b3 8ebe 7fd4 aebe 22e3 5ebc
00000250: 2ce5 e43d ddaf 03be 0fcd 3b3d 9537 2e3d
00000260: 636e c83c c9e0 b0bd 2ab4 04bd 17c9 25be
00000270: 5922 febe c560 78be 7c12 1b3e ae53 f0bd
00000280: 4445 acbd 4c4d a5bd 2a4d e0bc 4d9d 2a3e
00000290: 5096 5c3e ba74 0dbe ddce c63c 6028 cabd
000002a0: 431a 6bbe 2089 d43c bb45 25be 44d4 3a3e
000002b0: 2a36 9e3d bdbb 3ebe 204a bc3d 80db 543d
000002c0: 96d3 14be 1a21 f4bd 0edf 93bd 200e c93c
000002d0: b0f1 e53d 991a 50be d719 46bd 8044 96bd
000002e0: 5c6e 80be fcf2 08be 349b 4dbc 2f3a 8fbd
000002f0: 1ff2 463d eaff 3a3d 3490 153e e97c 17bd
00000300: bdb7 09bc 9c53 d83d 3542 8cbd ec7a 8ebc
00000310: 42f3 8bbd ade4 f4bc 55d6 013e 9a36 8f3c
00000320: d3a0 00be c447 69bd 0b40 bbbd bfdc 93bd
00000330: 8762 5d3c 7283 fabd 92fe 883d 1460 553d
00000340: 6876 8d3e 60a4 3b3c 39aa 47be d893 9a3d
00000350: 9f3b b53e 17aa 063e e8f2 323e 346f e83d
00000360: 7c53 d13b fdae a6bc 5b5b c1bb 4790 dbbd
00000370: 3ad6 703e e73a b5bd e1ec 143d eec5 453e
00000380: e12a 0fbd c6a2 aabd 9fa2 4c3e 2d99 443e
00000390: 47cf 443e 7b3b 9d3e 68fe 8ebd cf86 bb3d
000003a0: 3b4a d53d dc48 c5bd d254 c7be b61c a1be
000003b0: 77ff e8ba fc8e 4abe 434d 36bd a954 403d
000003c0: 0a3d 323e 1284 babe e489 37bd 6f45 943d
000003d0: 7080 163d c999 e33d aec7 823c 14fc 8c3e
000003e0: 54c9 873d 58de 043e 5e89 c23d f035 34bd
000003f0: c4ff 0fbe 2d03 09be 8b06 f93d a786 653e

conv2.bias f4 [32]
-0.052586164 0.004034541 -0.031515732 0.3162737 -0.16701372 0.0067147105 -0.1176434 -0.031176517
-0.18873955 -0.23645669 -0.088482365 -0.034813926 -0.02568074 -0.09154981 -0.019155154 0.029601375
-0.06729056 0.13809259 0.09930496 -0.037426785 -0.15429413 -0.06032101 0.17346025 -0.12770338
0.17065793 -0.020449316 -0.14714254 0.21826516 0.0657119 0.16310942 -0.047644846 -0.09815366
00000000: 9764 57bd 2f34 843b a416 01bd a0ee a13e
00000010: a505 2bbe 1307 dc3b 06ef f0bd e565 ffbc
00000020: f144 41be b421 72be 3e36 b5bd 0c99 0ebd
00000030: 6a60 d2bc 777e bbbd 45eb 9cbc 957e f23c
00000040: a2cf 89bd 2568 0d3e 6660 cb3d d44c 19bd
00000050: 48ff 1dbe 2a13 77bd 909f 313e adc4 02be
00000060: f4c0 2e3e 5385 a7bc 89ac 16be e780 5f3e
00000070: f693 863d 2806 273e 3e27 43bd c904 c9bd

fc1.weight f4 [128, 1568]
0.010703222 -0.07135511 -0.19859472 0.13475782 0.019331044 0.062207073 0.00693014 -0.02283592
-0.000698995 -0.023042638 0.04635045 0.0467789 0.03048069 -0.043195724 0.16760452 0.038695265
-0.05903305 0.28041282 0.057116836 0.12066412 0.17104965 -0.16505516 0.10715707 0.046738982
-0.11267227 0.028895404 0.25032765 0.3187749 -0.050907306 0.06727721 0.02552284 -0.20142525
-0.29617766 -0.08149738 0.23485218 -0.05773805 0.04292783 0.08529826 0.21974307 0.09540081
-0.33265957 0.03401092 -0.009014321 0.034456808 0.037078604 -0.08868202 0.07474794 -0.018753858
0.006548931 -0.056012884 0.19856754 0.061858695 0.03164724 0.28501245 0.088324055 0.0046011466
-0.03165302 -0.024964789 0.101103835 0.17677738 0.1050072 -0.2024083 0.2666193 0.103407755
-0.111538425 0.052945275 0.12580168 0.034145646 -0.0033743652 0.04974604 -0.11350007 0.012609163
0.06573917 0.13697562 -0.059195027 -0.06535291 -0.110443495 -0.026214471 0.0007823211 -0.038518503
0.019747715 -0.10336814 -0.015176571 -0.103453204 -0.12722525 -0.17001207 -0.21582666 0.11332002
-0.021689264 0.15625314 -0.15514545 0.00800596 -0.21374637 -0.0543243 -0.029954655 -0.07253316
0.07784884 -0.10352256 -0.03270151 0.068618 0.2823323 0.18588664 0.11348467 -0.034957867
0.123381615 -0.07160246 0.0075297942 -0.04837172 0.16650589 0.16244826 -0.07884084 0.10425374
0.022253174 -0.016044836 -0.042059068 0.24267629 0.06415404 -0.002282396 0.04844971 0.01016874
-0.22085217 -0.17579126 0.01947384 0.14494641 0.020039212 -0.21865833 0.016627409 -0.013051865
0.14564532 0.009201463 -0.06567351 0.17168608 -0.11989018 -0.13643165 -0.061820418 0.14135993
0.0014562783 -0.027052429 0.24624519 -0.14073718 -0.0006413347 -0.1607242 0.13308552 0.056284525
-0.2537158 0.04336967 0.014530298 0.29859444 0.10942924 0.16006197 -0.13008389 0.22697918
0.069254346 0.020179715 0.18724161 0.01668548 -0.059872933 0.15051249 -0.13904923 0.015375651
-0.20021059 -0.012217129 -0.068292364 -0.03538109 0.2908175 -0.1452916 -0.22954072 0.03677307
-0.018454969 -0.063434094 0.0523771 0.06427689 -0.03121568 -0.18279271 -0.013804029 -0.08418925
-0.0144683365 0.065509066 -0.1468535 0.17182036 -0.29575166 -0.1961776 -0.04680017 0.10563673
0.051976297 -0.17898995 0.13259876 -0.21984725 -0.21770254 0.095416784 0.05754457 -0.15112971
-0.10295226 -0.09196621 -0.2664186 -0.15661596 0.11378279 0.0036347217 0.00015259764 -0.101582915
-0.0166175 -0.0906904 0.13532074 0.24395052 0.14865874 0.087489985 0.0003869915 0.11232448
0.014679574 0.00043164875 -0.10887549 0.19443691 0.059438903 0.13019334 0.03862067 -0.09256346
0.03312053 0.081010394 0.14106672 0.01461377 0.037899934 0.18110806 -0.06586798 -0.028962703
0.1354437 0.15561216 0.050058924 -0.03648269 0.044106763 0.08889953 -0.24409124 0.1130886
0.08751352 -0.0072687794 0.0355041 0.028864574 0.27680156 -0.2970117 0.018403739 0.19737184
-0.11288666 0.07731246 -0.1853807 0.051673703 -0.19097309 0.09736483 0.06735693 -0.140789
-0.19567437 0.13613139 0.13911974 0.14644018 0.038978916 0.06578353 0.06362556 0.078396015
00000000: 915c 2f3c a122 92bd 6a5c 4bbe f4fd 093e
00000010: 235c 9e3c d8cc 7e3d 3a16 e33b 6512 bbbc
00000020: c33c 37ba eac3 bcbc f8d9 3d3d 3b9b 3f3d
00000030: a4b2 f93c 00ee 30bd 85a0 2b3e ed7e 1e3d
00000040: a4cc 71bd 4592 8f3e 58f3 693d c01e f73d
00000050: a427 2f3e 3804 29be 2a75 db3d 6071 3f3d
00000060: b8c0 e6bd 0eb6 ec3c f22a 803e 7736 a33e
00000070: 2e84 50bd a2c8 893d 4615 d13c 6c42 4ebe
00000080: 99a4 97be 19e8 a6bd 177d 703e bc7e 6cbd
00000090: 18d5 2f3d dbb0 ae3d 5404 613e 8061 c33d
000000a0: 5b52 aabe 094f 0b3d cdb0 13bc 9522 0d3d
000000b0: bcdf 173d eb9e b5bd 7315 993d b1a1 99bc
000000c0: 6a98 d63b c46d 65bd 4a55 4b3e 8b5f 7d3d
000000d0: 89a0 013d 27ed 913e 3ee3 b43d 37c5 963b
000000e0: 99a6 01bd f582 ccbc 870f cf3d 2105 353e
000000f0: 040e d73d 1f44 4fbe 5382 883e 72c7 d33d
00000100: 426e e4bd 25dd 583d 28d2 003e 4edc 0b3d
00000110: 7424 5dbb 81c2 4b3d ba72 e8bd aa96 4e3c
00000120: 42a2 863d 5643 0c3e 7c76 72bd bfd7 85bd
00000130: 3330 e2bd bbbf d6bc ae14 4d3a 94c5 1dbd
00000140: f6c5 a13c adb2 d3bd 27a7 78bc 46df d3bd
00000150: 5647 02be a517 2ebe aa01 5dbe 5414 e83d
00000160: afad b1bc d300 203e 73de 1ebe 6e2b 033c
00000170: 54e0 5abe 2883 5ebd 7763 f5bc 448c 94bd
00000180: 366f 9f3d a303 d4bd 05f2 05bd 9887 8c3d
00000190: dc8d 903e 1159 3e3e a76a e83d fb2f 0fbd
000001a0: 80af fc3d 50a4 92bd 7ebc f63b 6d21 46bd
000001b0: 8580 2a3e d658 263e 4e77 a1bd fc82 d53d
000001c0: 4a4c b63c 7670 83bc 2146 2cbd 2280 783e
000001d0: 3163 833d 4094 15bb 3473 463d c99a 263c
000001e0: 1227 62be a002 34be 9a87 9f3c d56c 143e
000001f0: 4629 a43c f8e7 5fbe 3436 883c 7dd7 55bc
00000200: 0c24 153e bcc1 163c d57f 86bd 7ace 2f3e
00000210: fc88 f5bd bdb4 0bbe 6837 7dbd a8c0 103e
00000220: 97e0 be3a 0e9d ddbc b327 7c3e 681d 10be
00000230: 3e1f 28ba e294 24be 9247 083e 9a8a 663d
00000240: 0ae7 81be 65a4 313d 7d10 6e3c 5fe1 983e
00000250: 701c e03d 49e7 233e b634 05be 3b6d 683e
00000260: 39d5 8d3d ee4f a53c 44bc 3f3e fdaf 883c
00000270: 523d 75bd f21f 1a3e ec62 0ebe 28ea 7b3c
00000280: 0104 4dbe 5a2a 48bc dedc 8bbd c3eb 10bd
00000290: 08e6 943e 52c7 14be b90c 6bbe 5c9f 163d
000002a0: e02e 97bc bce9 81bd 5f89 563d 9aa3 833d
000002b0: 07b8 ffbc 032e 3bbe 4b2a 62bc 6a6b acbd
000002c0: 9a0c 6dbc 9e29 863d c460 16be adf1 2f3e
000002d0: c36c 97be c8e2 48be 89b1 3fbd 1258 d83d
000002e0: 19e5 543d 2449 37be f8c7 073e a31f 61be
000002f0: 6aed 5ebe e069 c33d dbb3 6b3d bfc1 1abe
00000300: a2d8 d2bd c858 bcbd 0568 88be ef5f 20be
00000310: f406 e93d 8334 6e3b 9e02 2039 b40a d0bd
00000320: 6c21 88bc e3bb b9bd 8591 0a3e 2ace 793e
00000330: ff39 183e f32d b33d 1fe5 ca39 610a e63d
00000340: 9982 703c ea4e e239 1dfa debd 781a 473e
00000350: 3576 733d 6751 053e b530 1e3d e991 bdbd
00000360: 65a9 073d c7e8 a53d cb73 103e 986e 6f3c
00000370: f63c 1b3d 6474 393e cbe5 86bd 3143 edbc
00000380: c1b1 0a3e cb58 1f3e 960a 4d3d e06e 15bd
00000390: 4ba9 343d f510 b63d 0ef3 79be ff9a e73d
000003a0: 4a3a b33d f12e eebb bf6c 113d 6675 ec3c
000003b0: efb8 8d3e eb11 98be 70c3 963c d81b 4a3e
000003c0: 1f31 e7bd ff55 9e3d 70d4 3dbe cea7 533d
000003d0: 738e 43be 3667 c73d 6ef2 893d fe2a 10be
000003e0: dd5e 48be 0766 0b3e 6875 0e3e 6af4 153e
000003f0: 5ba8 1f3d 84b9 863d 1e4e 823d 178e a03d

fc1.bias f4 [128]
0.023631006 -0.01371999 0.007965799 -0.0058603026 0.06426521 -0.0013553347 0.08315545 0.010125299
-0.009215519 -0.022316314 0.05961251 0.05816401 -0.0009191885 0.031980652 0.012150893 -0.021729395
0.027257066 0.0068712723 0.00039931023 -0.0252045 -0.00013149508 0.035474744 -0.01662423 0.056557532
-0.0106981965 0.0041946974 0.071531095 0.04612204 0.016528388 -0.028160073 0.041319758 -0.04165547
-0.000978635 -0.007940629 0.04702714 -0.011935704 -0.029128714 0.0118418485 0.05313808 0.014290535
-0.0042060306 0.011218668 0.014487105 0.028704245 0.0017630457 0.011422635 -0.019446535 0.0616147
-0.0014285396 0.013156991 0.00911438 -0.009513458 0.0560452 -0.030521045 0.010137216 -0.003339575
0.016066922 0.0700217 -0.019052103 0.09161431 0.008866646 -0.0016290604 -0.04446369 -0.0024647997
0.015601352 -0.014780728 0.014986084 0.030338762 0.06274704 -0.016695285 -0.006453973 0.019992324
0.052396405 0.006836168 0.020850478 0.027475243 0.05924506 -0.0093140565 0.010818952 -0.0029780893
0.07376093 -0.013437819 -0.0040143295 0.0076577924 0.07962749 0.013350218 0.014652026 0.011534292
0.05162176 0.00075277407 0.033971705 0.03195208 -0.001045627 -0.028635675 -0.025265673 -0.019040631
0.04547973 0.041630805 -0.014878076 0.006151712 0.007720116 -0.02787921 0.07244725 0.032340724
-0.023372747 0.022556506 -0.0403879 -0.014331954 -0.011395888 0.008064528 0.053432137 -0.02342205
0.003479879 0.018488465 0.019768003 0.03232068 -0.048197236 0.012460314 -0.019422343 -0.011841656
-0.012888836 0.0038553933 -0.006132011 0.0009161708 0.010056263 0.017157933 -0.013175042 0.04862732
00000000: d095 c13c cfc9 60bc fc82 023c c807 c0bb
00000010: 7a9d 833d 7ca5 b1ba 684d aa3d 95e4 253c
00000020: b0fc 16bc b4d0 b6bc 3f2c 743d 633d 6e3d
00000030: b2f5 70ba 25fe 023d 8a14 473c d801 b2bc
00000040: 364a df3c 6928 e13b 835a d139 ab79 cebc
00000050: f1e1 09b9 f74d 113d 8a2f 88bc dfa8 673d
00000060: 7d47 2fbc ac73 893b e57e 923d 77ea 3c3d
00000070: 8b66 873c f4af e6bc e83e 293d ed9e 2abd
00000080: 8b45 80ba 6919 02bc 889f 403d f98d 43bc
00000090: 579f eebc 5004 423c 51a7 593d d922 6a3c
000000a0: bed2 89bb 81ce 373c 535b 6d3c 2a25 eb3c
000000b0: ff15 e73a 0126 3b3c 574e 9fbc b25f 7c3d
000000c0: d63d bbba 6c90 573c 7b54 153c 56de 1bbc
000000d0: a78f 653d 4507 fabc 9116 263c c5dc 5abb
000000e0: c79e 833c 8967 8f3d 2813 9cbc 49a0 bb3d
000000f0: 6945 113c 3286 d5ba 8f1f 36bd 7a88 21bb
00000100: d09c 7f3c de2a 72bc 3188 753c ff88 f83c
00000110: 8581 803d 8dc4 88bc d97b d3bb f1c6 a33c
00000120: 9d9d 563d ef01 e03b 9fce aa3c c313 e13c
00000130: f3aa 723d fc99 18bc f941 313c 0c2c 43bb
00000140: f80f 973d 4c2a 5cbc a38a 83bb 38ee fa3b
00000150: bd13 a33d dfba 5a3c 0d0f 703c 54fa 3c3c
00000160: 5771 533d d055 453a ea25 0b3d 2fe0 023d
00000170: 6c0d 89ba 5d95 eabc f5f9 cebc 19fb 9bbc
00000180: f448 3a3d 1085 2a3d 2cc3 73bc 4d94 c93b
00000190: 07f9 fc3b f162 e4bc 395f 943d b577 043d
000001a0: 3478 bfbc 6cc8 b83c c86d 25bd 92d0 6abc
000001b0: d2b5 3abc 1521 043c a8db 5a3d 99df bfbc
000001c0: ae0e 643b 1f75 973c 82f0 a13c b062 043d
000001d0: 776a 45bd 5826 4c3c 9b1b 9fbc 8103 42bc
000001e0: b22b 53bc c4aa 7c3b 09ef c8bb 2e2b 703a
000001f0: 06c3 243c cb8e 8c3c 22dc 57bc 712d 473d

fc2.weight f4 [10, 128]
0.08560864 -0.033605747 -0.013571721 0.08100784 0.044947103 0.14691181 0.036742628 -0.1660245
0.05448224 -0.11113279 0.14178313 0.11052129 0.07010867 -0.29251325 0.0815526 -0.010558406
0.06502749 0.0078002256 -0.046987627 0.03869946 0.059335038 0.34951648 0.058284774 0.093568124
-0.14594527 -0.1752518 -0.15655012 -0.12968892 -0.049854323 0.020629788 -0.15749505 -0.009400778
-0.1811361 -0.21991695 -0.21461648 0.031677283 -0.009454912 0.021230718 0.095419146 -0.37189278
-0.087686114 -0.17578769 0.12635235 -0.22121374 0.18643183 -0.048492003 -0.010339573 -0.15579545
0.18501985 0.027240314 0.3373075 0.018385373 -0.11127276 -0.0011789567 -0.06373611 0.27585134
-0.33587596 -0.29409966 0.048483398 0.11165686 0.031903606 0.11138982 -0.4998483 -0.021279125
0.12095434 -0.06691062 0.010229077 -0.052169707 -0.09587304 -0.040036365 0.008445721 0.10072145
0.057183206 -0.004301292 0.071571276 -0.09787492 0.08881734 -0.07459865 0.019017689 0.028378906
0.040745895 -0.21293214 0.13503611 0.056469772 -0.27885908 0.04322792 -0.0060464265 -0.21501157
-0.101779245 0.029935675 -0.18445368 0.18780899 -0.13941067 0.036747005 -0.059732594 -0.044226605
0.0389108 0.05519727 0.0665385 0.040079877 0.030965736 -0.013544765 0.025021963 0.04414515
-0.060752656 -0.4487451 -0.18192412 -0.08024782 0.034718897 0.0041146963 0.05439296 -0.07967945
-0.0005023857 -0.15905853 0.06898072 0.10404513 0.051927276 -0.05484202 -0.09294769 -0.016266117
-0.060927875 0.024256663 0.04654399 -0.044085864 -0.017101225 0.06526919 -0.011900867 0.1268542
0.12036395 -0.0065793563 -0.06451016 0.29270467 0.06427416 -0.25656444 -0.52580327 -0.09386395
0.014284222 0.25839207 -0.065267645 -0.54850364 -0.20772937 0.094887264 0.015183849 -0.044976566
0.12981553 -0.015378314 -0.039095424 0.07028447 -0.021947136 -0.18291594 0.028685788 -0.19211896
0.0053098765 0.09795728 -0.12231176 0.25397226 0.06740543 0.029792363 -0.07636584 -0.040778425
-0.42270714 -0.0008551588 -0.14563519 0.04493712 -0.06287425 0.042902086 -0.30363536 -0.46495003
-0.035779946 -0.16539913 0.07227075 0.17997134 -0.030021852 -0.0919222 -0.06380675 -0.31713262
0.09645969 -0.0818474 -0.32666335 -0.001051034 0.0524663 0.06571315 -0.07730589 0.4507625
0.12578127 0.112406515 0.068109855 -0.028764969 -0.02607149 -0.25176224 0.158656 0.007085614
-0.46581665 0.17219754 -0.052961573 -0.15507084 -0.123741806 -0.34715426 0.12283893 0.13906999
-0.17302108 0.10863662 -0.24061233 -0.016389873 0.018625991 0.070793584 -0.055781204 -0.03795036
-0.46059957 -0.0478878 -0.3379739 0.123692766 -0.35524422 -0.009616284 0.013367124 0.40571782
-0.50029236 0.13603674 -0.0035702006 -0.46816492 0.0900101 -0.02558746 -0.014348543 0.019964676
-0.17210224 -0.31839007 0.011335704 -0.004224107 -0.3943038 -0.047109637 -0.326409 -0.29491535
-0.051157713 -0.050294757 -0.2708404 -0.04781391 0.07383803 -0.073375374 -0.21309556 -0.056835003
-0.019595712 0.151689 0.09348078 -0.09245142 0.051067207 0.027319543 -0.055534154 -0.056597937
0.0021633066 -0.0049818503 0.02457924 -0.09061762 -0.006310758 0.0056481985 -0.053420365 0.0747964
00000000: 9553 af3d 2ea6 09bd ec5b 5ebc 70e7 a53d
00000010: 741a 383d 0d70 163e 707f 163d 5402 2abe
00000020: c528 5f3d 9799 e3bd 992f 113e fc58 e23d
00000030: 2295 8f3d 4cc4 95be 0d05 a73d 2afd 2cbc
00000040: 222d 853d 0999 ff3b 1976 40bd 5383 1e3d
00000050: 4c09 733d d3f3 b23e 04bc 6e3d a5a0 bf3d
00000060: ad72 15be 3575 33be ad4e 20be 2ccd 04be
00000070: 0c34 4cbd cdff a83c 6246 21be b905 1abc
00000080: be7b 39be e931 61be 6cc4 5bbe 0ac0 013d
00000090: c6e8 1abc 0bec ad3c 1d6b c33d bb68 bebe
000000a0: c794 b3bd b001 34be 8362 013e db85 62be
000000b0: fce7 3e3e 8d9f 46bd 5067 29bc d888 1fbe
000000c0: d875 3d3e 1427 df3c 92b3 ac3e ec9c 963c
000000d0: f9e2 e3bd 3987 9aba 1488 82bd 633c 8d3e
000000e0: eff7 abbe 3b94 96be 8796 463d 5aac e43d
000000f0: 5bad 023d 5920 e43d 1eec ffbe 8f51 aebc
00000100: e9b6 f73d 6f08 89bd dc97 273c e7af 55bd
00000110: 1659 c4bd 2cfd 23bd ec5f 0a3c 0c47 ce3d
00000120: f038 6a3d daf1 8cbb f693 923d a572 c8bd
00000130: dee5 b53d 2dc7 98bd fcca 9b3c e17a e83c
00000140: 2be5 263d e20a 5abe e846 0a3e d94c 673d
00000150: 9ec6 8ebe c20f 313d 1a21 c6bb fe2b 5cbe
00000160: a371 d0bd a93b f53c 6de1 3cbe 0051 403e
00000170: acc1 0ebe 0784 163d 2aaa 74bd f526 35bd
00000180: ee60 1f3d 8816 623d 5645 883d cc2a 243d
00000190: dbab fd3c ddea 5dbc dcfa cc3c 8bd1 343d
000001a0: c7d7 78bd ebc1 e5be 514a 3abe f858 a4bd
000001b0: 6735 0e3d 93d4 863b 27cb 5e3d fb2e a3bd
000001c0: 89b2 03ba 3de0 22be c445 8d3d 9d15 d53d
000001d0: b2b1 543d 07a2 60bd 5c5b bebd 8540 85bc
000001e0: 828f 79bd e9b5 c63c e9a4 3e3d 6193 34bd
000001f0: de17 8cbc daab 853d dbfb 42bc 11e6 013e
00000200: 6081 f63d a497 d7bb e71d 84bd 63dd 953e
00000210: 2ca2 833d 6a5c 83be 0b9b 06bf be3b c0bd
00000220: 5f08 6a3c f74b 843e 0bab 85bd bc6a 0cbf
00000230: 02b7 54be 4154 c23d aec5 783c 5939 38bd
00000240: 5dee 043e 53f5 7bbc 8622 20bd 4ef1 8f3d
00000250: 7bca b3bc 514e 3bbe 75fe ea3c d5ba 44be
00000260: 79fe ad3b d49d c83d 977e fabd a708 823e
00000270: dc0b 8a3d 1d0f f43c b265 9cbd 4707 27bd
00000280: 126d d8be bc2c 60ba 6421 15be fc0f 383d
00000290: 37c4 80bd 19ba 2f3d 1876 9bbe ee0d eebe
000002a0: fe8d 12bd 645e 29be b002 943d 684a 383e
000002b0: 63f0 f5bc b541 bcbd 1dad 82bd 355f a2be
000002c0: a88c c53d 9c9f a7bd 6b40 a7be d9c2 89ba
000002d0: e7e6 563d 9e94 863d 8d52 9ebd 58ca e63e
000002e0: cecc 003e 6335 e63d 2e7d 8b3d 83a4 ebbc
000002f0: e193 d5bc fbe6 80be b876 223e 702e e83b
00000300: 857f eebe 8d54 303e 3cee 58bd e4ca 1ebe
00000310: 586c fdbd 34be b1be fa92 fb3d 5d68 0e3e
00000320: 702c 31be e07c de3d 1463 76be 0e44 86bc
00000330: 8995 983c 3afc 903d d57a 64bd d671 1bbd
00000340: b5d3 ebbe ff25 44bd ea0a adbe a252 fd3d
00000350: 92e2 b5be 9e8d 1dbc c801 5b3c 3fba cf3e
00000360: 2913 00bf 374d 0b3e 07fa 69bb 50b3 efbe
00000370: 3757 b83d cb9c d1bc 2716 6bbc f68c a33c
00000380: 923b 30be 0604 a3be 63b9 393c 616a 8abb
00000390: 30e2 c9be 09f6 40bd 151f a7be 25ff 96be
000003a0: c08a 51bd e001 4ebd 98ab 8abe 85d8 43bd
000003b0: 6538 973d d445 96bd b935 5abe d2cb 68bd
000003c0: 3087 a0bc 5c54 1b3e da72 bf3d 2c57 bdbd
000003d0: d92b 513d 3ccd df3c c877 63bd 3dd3 67bd
000003e0: 43c6 0d3b ca3e a3bb 675a c93c bb95 b9bd
000003f0: 7aca cebb 8614 b93b 50cf 5abd db2e 993d

fc2.bias f4 [10]
0.021482084 -0.09971537 0.050858047 -0.024662405 0.032896634 -0.042666655 -0.0032937527 -0.0032585913
0.062004074 -0.078285985
00000000: 32fb af3c 9237 ccbd 8750 503d d008 cabc
00000010: 9fbe 063d 3bc3 2ebd 00dc 57bb 178e 55bb
00000020: fcf7 7d3d 6754 a0bd
