image-classification/FashionMNIST/trained_models/fashion_cnn.pth (torch, 109552 bytes, 8 tensors)

layers.0.weight f4 [16, 1, 2, 2]
0	0x3dad5d68	0.084650815
1	0xbded3ed1	-0.11584247
2	0xbe3141c7	-0.17310248
3	0xbeea26b8	-0.45732665
4	0xbe42c869	-0.19021763
5	0xbc9f1589	-0.019419448
6	0xbe4e4930	-0.20145106
7	0xbd1eac47	-0.038738515
8	0xbf3df242	-0.7419778
9	0x3f3fc962	0.7491666
10	0x3e58622e	0.21131203
11	0xbe9d8b65	-0.30770412
12	0xbe31e775	-0.1737345
13	0xbf49f9d9	-0.7889686
14	0x3ee08d6b	0.43857893
15	0xbee77b4b	-0.45211253
16	0xbed962dc	-0.42458236
17	0x3e6e0e26	0.23247585
18	0xbf112c29	-0.5670801
19	0x3ea89c3e	0.32931703
20	0x3d1dbf63	0.0385126
21	0xbeda6111	-0.4265218
22	0x3f5926e8	0.8482499
23	0xbf1dc6e6	-0.6163162
24	0x3ee10e39	0.43956164
25	0xbeb7c2e3	-0.35890874
26	0xbeb46c21	-0.35238746
27	0xbf243ce6	-0.64155424
28	0x3ec671d8	0.3875873
29	0xbe93e77e	-0.28887552
30	0x3f304f1c	0.6887071
31	0x3f112c35	0.5670808
32	0xbebfa778	-0.37432456
33	0x3eea273f	0.45733067
34	0xbe4d11f6	-0.20026383
35	0x3f5663d8	0.837461
36	0x3ee7bffe	0.45263666
37	0x3f0672c7	0.52518886
38	0x3e1b1b2f	0.15147088
39	0xbe2dda75	-0.16977866
40	0xbc103dd3	-0.008803803
41	0x3f778974	0.9669411
42	0xbe499b29	-0.19688095
43	0x3e9ed591	0.31022313
44	0xbec71e0c	-0.3889011
45	0xbeccc734	-0.3999573
46	0xbe4f6e92	-0.20257023
47	0xbe7201d8	-0.23633516
48	0xbefd55ea	-0.4947961
49	0xbeb27da9	-0.34861496
50	0xbd88c324	-0.06677845
51	0xbe504fef	-0.20342992
52	0xbe06aa23	-0.1315084
53	0x3dd39237	0.10330623
54	0xbf293250	-0.66092396
55	0xbed6b768	-0.41936803
56	0x3f01b36f	0.5066442
57	0xbf052309	-0.52006584
58	0xbf10fd9e	-0.5663699
59	0x3ec1c8f0	0.37848616
60	0xbec4039a	-0.38283998
61	0x3ef69105	0.48157516
62	0xbebe0983	-0.37116632
63	0xbe60cb3a	-0.21952525

layers.0.bias f4 [16]
0	0xbe562fd4	-0.20916682
1	0xbe787df8	-0.24266803
2	0x3ea2e35d	0.3181409
3	0xbe90749f	-0.28213975
4	0xbf104312	-0.5635234
5	0x3e46299a	0.19351807
6	0x3df16c1e	0.117882
7	0x3e30b419	0.17256202
8	0x3ebfb533	0.37442932
9	0xbedde6bd	-0.43340102
10	0x3ead8895	0.33893266
11	0xbe898ed5	-0.26866785
12	0xbed8ffc0	-0.42382622
13	0xbeabf478	-0.33584952
14	0xbe72559a	-0.23665467
15	0xbdb973a3	-0.09055259

layers.2.weight f4 [8, 16, 3, 3]
0	0xbe6838a4	-0.22677857
1	0x3e0eca12	0.13944271
2	0x3da386f7	0.07984727
3	0xbd493afe	-0.049128525
4	0x3a415980	0.0007375702
5	0xbc6dea25	-0.014521156
6	0xbe11cfdb	-0.14239447
7	0xbdff6542	-0.12470485
8	0xbd1c1f53	-0.03811581
9	0xbe7dff2d	-0.24804373
10	0x3cef0ee7	0.02918191
11	0x3e5b5f2c	0.21423024
12	0xbe10f5f0	-0.14156318
13	0xbdfac45f	-0.12244486
14	0xbdeef6e2	-0.11668183
15	0xbd8a5e14	-0.06756225
16	0xbd87369e	-0.06602214
17	0xbd04c37b	-0.032412987
18	0xbe5b873e	-0.2143831
19	0xbdf5c432	-0.12000312
20	0xbe282041	-0.16418554
21	0x3e74edc7	0.2391883
22	0x3e6f80df	0.23389004
23	0x3dd5f857	0.10447758
24	0xbe78d6ae	-0.24300644
25	0xbdf44402	-0.11927034
26	0xbd245605	-0.040121097
27	0xbe82218e	-0.25416225
28	0x3e86efec	0.2635492
29	0x3dca8d72	0.0989026
30	0xbe1bd1ee	-0.152168
31	0xbe5d0a12	-0.21585873
32	0xbe727c0e	-0.23680136
33	0xbe2c3f0f	-0.1682093
34	0xbe3b6303	-0.18299489
35	0x3cae5e46	0.021285187
36	0xbe7915b9	-0.24324693
37	0xbe625707	-0.22103511
38	0x3f012cbc	0.50458884
39	0xbe4025c8	-0.18764412
40	0x3d48731f	0.048937913
41	0xbc7eb32b	-0.015545647
42	0x3cb1ccea	0.021704156
43	0xbd9a1731	-0.07523955
44	0xba904c5a	-0.0011009083
45	0xbe4e6cb2	-0.20158651
46	0x3eb6e0f7	0.3571851
47	0xbdaace02	-0.08340074
48	0xbb168023	-0.002296456
49	0xbe178ba7	-0.14799367
50	0xbd7ce77b	-0.061744194
51	0xbe61c414	-0.22047454
52	0xbe5d3312	-0.21601513
53	0xbd820aab	-0.06349691
54	0xbe15f27d	-0.14643283
55	0x3e16c50c	0.14723605
56	0xbd4482ad	-0.047976185
57	0x3d81c988	0.06337267
58	0x3e35323f	0.17694949
59	0x3d9bba40	0.07603884
60	0xbe4fa98a	-0.20279518
61	0xbdda7aa9	-0.10667927
62	0xbd9e5493	-0.07730975
63	0x3e28f90e	0.16501257
64	0x3e1067a9	0.14102043
65	0xbc6b9b59	-0.0143802995
66	0xbde6d314	-0.11270729
67	0xbe3e6a52	-0.18595245
68	0xbe3fc322	-0.18726781
69	0xbe42043d	-0.1894693
70	0xbee7a577	-0.45243427
71	0xbab0f6ac	-0.0013501248
72	0x3d99c25e	0.07507776
73	0x3d756e52	0.059919663
74	0x3dde3c4f	0.10851347
75	0x3e3bac68	0.18327487
76	0xbd92daae	-0.07170616
77	0xbe3ac35e	-0.18238589
78	0x3dbc4bad	0.091941215
79	0xbe639f5d	-0.22228761
80	0xbdcd4d49	-0.100245066
81	0x38f65494	0.00011745948
82	0xbe73fe1f	-0.23827408
83	0xbe87d61c	-0.2653054
84	0xbd78b2c1	-0.060717348
85	0xbe403208	-0.18769085
86	0x3c4128d4	0.011789519
87	0x3d7c7065	0.061630625
88	0xbe4e44ad	-0.20143385
89	0x3c6793c2	0.014134349
90	0x3ca98ffb	0.020698538
91	0xbe9a7d05	-0.30173507
92	0xbe55d7cb	-0.208831
93	0x3e102270	0.14075637
94	0x3e2716b0	0.16317248
95	0xbd81777c	-0.06321618
96	0x3dbe6fd1	0.09298671
97	0xbde68909	-0.11256606
98	0xbd3b1760	-0.04567659
99	0xbe73d33b	-0.23811047
100	0x3e237f6d	0.15966578
101	0x3e6ee32d	0.23328848
102	0xbdc5dd8e	-0.09661399
103	0xbd85cd00	-0.06533241
104	0xbe1af720	-0.15133333
105	0xbe47c028	-0.19506896
106	0x3d077f65	0.033080477
107	0xbdbdace6	-0.092614934
108	0xbe92c90c	-0.28669012
109	0x3e0ed97e	0.13950154
110	0x3e4913d0	0.19636464
111	0xbe350657	-0.176782
112	0xbe4a0917	-0.1973003
113	0xbe816f4e	-0.2528023
114	0xbe355804	-0.17709357
115	0xbd30d270	-0.04316944
116	0xbc1d854e	-0.009614302
117	0xbdee3443	-0.11631062
118	0xbda79fdc	-0.08184788
119	0x3d78c9aa	0.060739197
120	0xbd6baa3e	-0.057535402
121	0xbd643bee	-0.055721216
122	0xbcdfd1e5	-0.027321765
123	0xbe48b6be	-0.1960096
124	0xbcf58a49	-0.029973166
125	0xbd03d005	-0.032180805
126	0x3e0652e1	0.13117553
127	0x3e997e79	0.29979303
128	0xbdd9be84	-0.10632041
129	0xbcb188b6	-0.021671634
130	0x3dac0571	0.08399475
131	0xbda90bd4	-0.08254209
132	0xbdf7027c	-0.12061021
133	0xbe431a14	-0.19052917
134	0xbd80348e	-0.06260024
135	0xbe5c080f	-0.21487449
136	0xbd8c842e	-0.06861149
137	0x3dd4d4c7	0.103921466
138	0xbdb9291b	-0.09041043
139	0x3d35dae3	0.0443982
140	0x3d6b4819	0.057441805
141	0xbe489304	-0.19587332
142	0xbda2687a	-0.079300836
143	0xbd952458	-0.07282323
144	0x3ccb9633	0.024851894
145	0x3e2a1719	0.16610374
146	0xbbbcff4b	-0.005767738
147	0x3d982266	0.07428436
148	0xbd09c307	-0.03363326
149	0x3cba0410	0.022707015
150	0x3d5fe729	0.05466381
151	0xbd860fc8	-0.06545979
152	0x3c75c807	0.0150013035
153	0x3c4331fd	0.011913774
154	0x3e419120	0.18903017
155	0xbd93d0d4	-0.07217565
156	0x3ddda05a	0.108216
157	0x3e139557	0.14412437
158	0xbb0d0067	-0.0021515132
159	0xbcb95bb5	-0.022626737
160	0xbd1135c6	-0.035451673
161	0xbdd63530	-0.104593635
162	0xbe883999	-0.26606444
163	0x3c9de95a	0.01927631
164	0xbea78265	-0.3271667
165	0xbe4a000f	-0.19726585
166	0x3e45b296	0.19306406
167	0xbcc7b442	-0.024377946
168	0xbe40795a	-0.18796292
169	0x3d99100c	0.07473764
170	0x3d94b806	0.07261662
171	0x3d06b2e1	0.032885436
172	0x3e10aa3e	0.14127442
173	0xbcd06109	-0.025436895
174	0x3d59005b	0.052978855
175	0x3caa8c5e	0.020818885
176	0xbb6992a0	-0.0035640374
177	0x3dadbdc0	0.084834576
178	0x3b6e71e0	0.0036383793
179	0x3c62b657	0.0138374185
180	0x3e26a27b	0.16272919
181	0x3f0e81a4	0.55666566
182	0x3df44599	0.11927337
183	0x3e273d63	0.16332011
184	0x3eed8ceb	0.46396574
185	0x3de564bd	0.11200855
186	0xbe31ffd6	-0.1738275
187	0x3e765e94	0.24059516
188	0x3d74eb5e	0.059794776
189	0xbe15158c	-0.14559
190	0xbe5b0ee9	-0.21392407
191	0xbd11990a	-0.03554634
192	0xbde077a6	-0.10960321
193	0xbcf61d58	-0.030043289
194	0x3e8641c8	0.26222062
195	0x3cd8197e	0.026379343
196	0xbc0751ea	-0.008259276
197	0x3d7a749f	0.061146375
198	0xbc2a2826	-0.010385549
199	0xbb576bfc	-0.003287076
200	0xbdc2c566	-0.09510307
201	0xbc913e43	-0.017729884
202	0xbd4ed434	-0.05049534
203	0xbb0e2abc	-0.0021692952
204	0x3d0822fe	0.033236496
205	0x3b304625	0.0026897278
206	0xbd980d2a	-0.07424386
207	0xbdd448a6	-0.10365419
208	0xbe8dee99	-0.27721098
209	0x3e74b2a4	0.23896271
210	0xbe2dcdbe	-0.16973016
211	0xbe4c375f	-0.19942997
212	0x3ebe54c9	0.3717406
213	0x3ba6e547	0.00509325
214	0x3c2f11ac	0.010685366
215	0x3d82f0ac	0.06393561
216	0xbef007e7	-0.4688103
217	0x3bb55a5a	0.0055344524
218	0x3e169c50	0.14708066
219	0xbee05164	-0.43812096
220	0x3e97cbec	0.29647768
221	0xbd06a230	-0.032869518
222	0xbe99e196	-0.3005492
223	0x3e85b7cc	0.26116788
224	0xbe0d81ce	-0.13819048
225	0x3dec159b	0.115275584
226	0xbce55a7f	-0.027997253
227	0x3ebe320b	0.37147555
228	0xbd775292	-0.06038148
229	0x3defec50	0.11714995
230	0x3e019e3f	0.12658022
231	0x3daf378a	0.08555515
232	0x3e3d7516	0.18501696
233	0x3e8fa957	0.28058884
234	0xbe857bbf	-0.26070973
235	0xbc91a3b6	-0.017778259
236	0x3e2d9e93	0.16955023
237	0xbeb97af8	-0.3622663
238	0x3dcfa75b	0.101393424
239	0x3d8b4e09	0.068019934
240	0xbe2d5a58	-0.16928995
241	0x3e88973e	0.2667789
242	0x3dc1eca3	0.09468963
243	0x3dbb2a6b	0.0913895
244	0x3e3fa99a	0.18717042
245	0xbd8c795a	-0.068590835
246	0x3daeb5dc	0.08530781
247	0x3ddd42e3	0.10803773
248	0xbddf68e8	-0.10908681
249	0x3c832205	0.016007433
250	0x3d8bbd14	0.06823173
251	0xbe0b623d	-0.13611694
252	0x3e0489a2	0.12943128
253	0x3e72f157	0.23724876
254	0xbdd9b329	-0.10629875
255	0x3e720a4d	0.23636742

layers.2.bias f4 [8]
0	0xbe9f12cc	-0.31069028
1	0xbe89da39	-0.26924303
2	0xbe2314ab	-0.15925853
3	0xbe85e469	-0.26150826
4	0xbe100535	-0.14064486
5	0xbe63360e	-0.22188589
6	0xbe1c8297	-0.15284191
7	0xbc3c6b39	-0.011500173

layers.5.weight f4 [120, 200]
0	0xbd85285a	-0.06501837
1	0x3d3ff52e	0.04686468
2	0x3db52445	0.088448085
3	0x3dc62ce4	0.09676531
4	0x3dbd74f6	0.09250824
5	0xbdd7c937	-0.105364256
6	0xbd2cb437	-0.042164054
7	0x3dbb68bd	0.091508366
8	0x3e9db7a9	0.30804184
9	0x3c95136f	0.018197743
10	0x3d3b5848	0.04573849
11	0xbe014234	-0.1262291
12	0xbba59d27	-0.0050541344
13	0x3dce6e31	0.10079611
14	0xbdd1bcaa	-0.10241063
15	0xbc759864	-0.014989946
16	0xbd32d097	-0.043655958
17	0xbe131021	-0.14361621
18	0xbd235920	-0.039879918
19	0xbdc4bde9	-0.09606535
20	0xbd657f4b	-0.0560296
21	0x3e662eb0	0.22478747
22	0xbd6fe707	-0.058569934
23	0x3b8f8dc6	0.0043809144
24	0x3c6d2c26	0.014475858
25	0x3e3ca871	0.1842363
26	0xbe1f42ff	-0.155529
27	0x3d7a007f	0.06103563
28	0x3e9bee96	0.30455464
29	0x3dc765bf	0.097362034
30	0xbe36fd0c	-0.17869967
31	0x3cc6cfa8	0.02426894
32	0xbd748ab7	-0.0597026
33	0x3e43f183	0.19135098
34	0x3d94481e	0.07240318
35	0xbdebf8c3	-0.11522057
36	0x3d3c1bc0	0.045924902
37	0xbd1ed0f8	-0.038773507
38	0x3c80968a	0.015696783
39	0xbdeb6ee4	-0.1149576
40	0xbe4e6406	-0.20155343
41	0x3d6de2ca	0.05807761
42	0xbd824310	-0.063604474
43	0xbdd552bf	-0.10416173
44	0x3e1e288f	0.1544516
45	0x3d85e497	0.06537741
46	0xbddf14e5	-0.10892657
47	0x3e2ab4b6	0.16670498
48	0xbc15ea85	-0.009150152
49	0xbda26dd2	-0.07931103
50	0x3b8b52eb	0.004251828
51	0xbd18f46a	-0.037342466
52	0xbdaa5765	-0.083174504
53	0x3d35e0f5	0.04440399
54	0xbdbf6bc2	-0.09346725
55	0xbd4305dd	-0.047613014
56	0xbc999e33	-0.018752193
57	0x3d03f1a7	0.03221288
58	0x3dd80499	0.10547752
59	0xbcdd6321	-0.027024807
60	0xbde02573	-0.10944643
61	0x3e820366	0.25393218
62	0x3d7b38e3	0.06133355
63	0xbda31974	-0.07963839
64	0x3dd1644a	0.10224207
65	0x3c52c64c	0.0128646605
66	0x3cc62909	0.024189489
67	0xbe2b3596	-0.1671966
68	0xbe470f84	-0.19439512
69	0x3e41ab27	0.18912946
70	0x3d97042f	0.07373845
71	0x3becea7d	0.0072301016
72	0xbe10abaa	-0.14127985
73	0xbe18e902	-0.14932635
74	0xbe5a2612	-0.21303585
75	0xbdb4c379	-0.08826346
76	0xbdf0091c	-0.117204875
77	0xbb8021df	-0.0039102877
78	0x3d31b0c5	0.04338147
79	0x3e866f2e	0.26256698
80	0xbe09932c	-0.13435048
81	0xbd8eb192	-0.069674626
82	0x3cd5298d	0.02602079
83	0x3bde650d	0.0067869485
84	0x3e767c23	0.24070792
85	0xbd64b185	-0.05583336
86	0x3dac95f1	0.084270366
87	0xbe180ad0	-0.14847875
88	0x3d870fae	0.065947875
89	0x3bb84fc0	0.0056247413
90	0xbdd26361	-0.10272861
91	0xbbd1c769	-0.0064019454
92	0xbe939ba5	-0.28829685
93	0xbd4ac519	-0.049504373
94	0x3dfd4224	0.12366131
95	0x3debf7c2	0.115218654
96	0x3e24f3be	0.16108605
97	0xbe6bbf0b	-0.23022096
98	0xbdc7d388	-0.09757143
99	0x3e37ca80	0.17948341
100	0xbd8d7441	-0.06906939
101	0x3c76607e	0.015037654
102	0x3cff3780	0.031154394
103	0xbd121c7f	-0.035671707
104	0xbe3a6e8f	-0.18206237
105	0x3c561119	0.0130656
106	0xbd4182dd	-0.04724394
107	0x3e82ea36	0.25569314
108	0x3e0895de	0.1333842
109	0xbd1eaba9	-0.038737927
110	0xbc95b81c	-0.018276267
111	0xbd9c5ab0	-0.07634485
112	0x3d3dff23	0.046385895
113	0xbcad5a7c	-0.02116131
114	0xbd7d3912	-0.061822005
115	0x3ca50547	0.020144118
116	0xbd9da4a8	-0.07697421
117	0x3d3fb8d8	0.04680714
118	0xbdde9ae9	-0.108693905
119	0x3b02cfad	0.001996021
120	0xbd5a583c	-0.053306803
121	0x3e911822	0.28338724
122	0xbe6c5e63	-0.2308288
123	0xbe199636	-0.14998707
124	0x3de48a78	0.11159223
125	0x3d797582	0.06090308
126	0x3e14b2ef	0.14521383
127	0x3ca42241	0.020035865
128	0x3dad15d8	0.08451432
129	0x3d5d9202	0.054094322
130	0xbdc036cb	-0.09385451
131	0xbd5d08e0	-0.053963542
132	0x3d1834a8	0.037159592
133	0x3db9aae3	0.09065797
134	0x3d568bfc	0.052379593
135	0xbe19319b	-0.14960329
136	0xbc701568	-0.014653541
137	0x3e07e762	0.1327186
138	0x3d7fb231	0.062425796
139	0xbcfa492e	-0.030552473
140	0xbdac5838	-0.08415264
141	0xbe1eeec5	-0.15520771
142	0x3c0e9389	0.008702167
143	0xbd5be814	-0.053688124
144	0xbd10c51d	-0.035344232
145	0x3d2420c8	0.040070325
146	0x3e1f6d53	0.15569048
147	0xbdb40c1d	-0.08791373
148	0xbe2073bc	-0.15669149
149	0xbe05718f	-0.130316
150	0x3cb44fbe	0.02201068
151	0xbdd9a227	-0.10626631
152	0xbdb227e2	-0.08699013
153	0xbd5cf808	-0.05394748
154	0xbd5df324	-0.054186955
155	0x3e453053	0.19256715
156	0x3dd491d3	0.10379376
157	0xbe17adf6	-0.14812455
158	0xbe47cdea	-0.19512144
159	0xbe66fe5c	-0.22557968
160	0x3cd66262	0.02616996
161	0x3dce4c29	0.1007312
162	0xbdb53185	-0.08847336
163	0xbdef8ad6	-0.11696403
164	0x3e15f11e	0.1464276
165	0xbb09a03a	-0.0021000043
166	0xbd9d974f	-0.076948754
167	0xbdf99876	-0.12187283
168	0xbdd4761e	-0.103740916
169	0x3dc50acd	0.09621201
170	0x3d5ed8ca	0.054405965
171	0x3da87146	0.0822473
172	0xbde28426	-0.110603616
173	0x3bc97640	0.0061481297
174	0x3d86927b	0.06570908
175	0xb9e9abdb	-0.00044569265
176	0x3e0696d9	0.13143481
177	0x3dadaa7a	0.084797814
178	0x3d34cbfd	0.04413985
179	0xbe2b3bf0	-0.16722083
180	0xbce25782	-0.027629618
181	0x3c8336f4	0.016017415
182	0x3d82116f	0.063509814
183	0x3cae1742	0.021251325
184	0xbdfd408e	-0.123658285
185	0x3e08edbe	0.13371941
186	0x3dd1eb48	0.102499545
187	0x3d751207	0.059831645
188	0xbdcf2e67	-0.101162724
189	0x3d63ea13	0.055643152
190	0x3d430194	0.047608927
191	0x3cb813ec	0.022470437
192	0x3da7b2b3	0.08188381
193	0xbe271eef	-0.16320394
194	0x3e06f286	0.13178453
195	0xbd21e974	-0.03952928
196	0x3b2f3306	0.0026733293
197	0xbde5d605	-0.112224616
198	0xbd5024c4	-0.050816312
199	0x3dd9b638	0.106304586
200	0x3b21bd22	0.0024679382
201	0x3dec9b57	0.11553066
202	0xbcf6e0cb	-0.030136487
203	0xbdb136fb	-0.08653065
204	0x3ca35a34	0.019940473
205	0x3cfcdbb6	0.030866485
206	0x3dc5a881	0.0965128
207	0x3e31574c	0.17318457
208	0x3e33ebf4	0.17570478
209	0x3d60ca0b	0.054880183
210	0xbc9c8a26	-0.019108843
211	0xbc66de02	-0.014091017
212	0x3e07d899	0.13266219
213	0x3ce7123f	0.028206943
214	0xbd2ed68d	-0.04268508
215	0xbdd91620	-0.10599923
216	0xbda6d55d	-0.081461646
217	0xbe02339d	-0.12715001
218	0xbde5d4d8	-0.11222237
219	0xbdabb59c	-0.083842486
220	0xbb73c15a	-0.0037194104
221	0x3e4dd759	0.2010168
222	0xbe5c9b84	-0.215437
223	0xbd8dcded	-0.06924043
224	0x3d85568e	0.065106496
225	0x3e776411	0.24159266
226	0x3e89ba0b	0.26899752
227	0x3c409986	0.011755353
228	0xbd40a721	-0.047034387
229	0x3d89bff6	0.06726067
230	0xbd161305	-0.036639232
231	0x3df5ded7	0.12005394
232	0xbe431c66	-0.19053802
233	0x3d49fd89	0.049314056
234	0x3c9541f7	0.018219931
235	0xbe333fe5	-0.17504843
236	0x3e1112d0	0.14167333
237	0xbd935e28	-0.07195693
238	0xbd1ba6ca	-0.03800086
239	0xbe294f05	-0.1653405
240	0xbe5ed096	-0.21759257
241	0x3c13f5b8	0.009030752
242	0x3e76daa4	0.24106842
243	0xbe130f3d	-0.14361282
244	0xbc5603ef	-0.013062461
245	0x3c253151	0.010082559
246	0x3d109788	0.03530076
247	0x3ea5545c	0.32290924
248	0x3de383b0	0.11109102
249	0xbd9ba335	-0.07599489
250	0xbcf28a79	-0.029607045
251	0x3e27b1a8	0.16376364
252	0x3c962c7a	0.018331755
253	0xbe000052	-0.12500122
254	0x3d64e2d4	0.055880383
255	0xbcba4351	-0.022737177

layers.5.bias f4 [120]
0	0xbc05249a	-0.008126402
1	0x3da4469f	0.080212824
2	0xbd91d7d5	-0.07121245
3	0x3d50befc	0.050963387
4	0x3cbc65cd	0.022997761
5	0x3c7feef2	0.015620934
6	0xbcf62780	-0.030048132
7	0x3ddb792e	0.107164726
8	0x3c71b3b0	0.0147523135
9	0x3ca4b494	0.020105638
10	0x3c1dcb20	0.009630948
11	0x3e1ed38c	0.15510386
12	0xbb8e9f00	-0.0043524504
13	0xbbf1e06d	-0.00738149
14	0x3d9f5f71	0.07781876
15	0x3d3e511e	0.046464078
16	0xbde246bf	-0.1104865
17	0x3d399d02	0.04531575
18	0xbdbddb06	-0.09270291
19	0x3d1fd571	0.039021913
20	0xbd726b72	-0.0591845
21	0x3d107f30	0.035277545
22	0x3da18410	0.07886517
23	0xbd49b481	-0.049244408
24	0xbd386505	-0.045018215
25	0x3d4e3d5c	0.050351486
26	0xbcb5beda	-0.022185732
27	0xbb931474	-0.004488522
28	0x3d221b7c	0.039576992
29	0x3d35cdf9	0.044385884
30	0x3a6ee5c4	0.0009113217
31	0x3dc91977	0.0981931
32	0x3ba10813	0.0049142926
33	0x3e0a825f	0.13526295
34	0x3d7e6b46	0.062114023
35	0xbd322a7b	-0.043497544
36	0x3cf43d8b	0.029814502
37	0xbd5339ab	-0.05156867
38	0x3d715590	0.05891949
39	0x37641520	1.3594778e-05
40	0x3d54e3fc	0.051975235
41	0xbc96cf4a	-0.01840939
42	0x3c81bb86	0.015836488
43	0xbd84dfa7	-0.06487971
44	0x3c36be37	0.011153749
45	0xbda8ff18	-0.0825178
46	0xbd0dd850	-0.03463012
47	0xbc7d8b6c	-0.015475135
48	0x3c83753b	0.01604711
49	0xbda6d4f4	-0.08146086
50	0xbd414fd6	-0.047195278
51	0xbd2fe3fd	-0.042942036
52	0x3d979747	0.07401901
53	0x3d526d27	0.051373627
54	0x3dca16ce	0.09867631
55	0xbbdef1a8	-0.00680371
56	0xbd5d51bb	-0.054033022
57	0x3d180997	0.03711852
58	0xbd480907	-0.048836734
59	0xbc320a4d	-0.010866714
60	0xbd0eaa0e	-0.034830146
61	0x3d1b65bd	0.037938822
62	0x3d8da66f	0.0691651
63	0x3c959fbc	0.018264644
64	0x3d55ffa4	0.05224575
65	0x3cc919c1	0.024548413
66	0xbd146846	-0.036232255
67	0xbc7078a7	-0.014677203
68	0x3d958504	0.07300761
69	0x3db07cd6	0.086175606
70	0x3df59c86	0.11992745
71	0x3d7cd15f	0.06172311
72	0x3cadc6a2	0.02121288
73	0xbc3be360	-0.011467785
74	0xbbd06224	-0.0063593555
75	0xbdf0fc4a	-0.1176687
76	0xbd039779	-0.032126877
77	0x3cccf471	0.025018902
78	0x3c5ad0b1	0.01335542
79	0x3d20decb	0.039274972
80	0xbd9848b8	-0.07435745
81	0xbd4606ba	-0.04834626
82	0xbdb6c88c	-0.0892497
83	0xbde56e64	-0.11202696
84	0xbd915a83	-0.07097342
85	0x3d8f5a51	0.06999648
86	0x3cd9268d	0.02650764
87	0xbcde477a	-0.027133692
88	0x3e2b0fb1	0.16705205
89	0xbc938bf3	-0.018011069
90	0xbdf1f8c8	-0.118150294
91	0x3daa689e	0.083207354
92	0x3df19c12	0.11797346
93	0xbd463fb7	-0.048400607
94	0x3dbb46fd	0.09144399
95	0x3d6f8776	0.058478795
96	0x3c0f2256	0.008736214
97	0xbde9f911	-0.11424459
98	0x3d6d0ef1	0.057875577
99	0x3d05f5df	0.032705184
100	0xbc896eff	-0.01677656
101	0x3d59b092	0.053146906
102	0x3c04ea7a	0.008112544
103	0xbd45df49	-0.048308644
104	0x3bde2dc3	0.0067803576
105	0xbd93208e	-0.07183944
106	0xbca73f01	-0.020415785
107	0x3d5fc059	0.054626796
108	0x3d66964e	0.056295685
109	0x3c3acd31	0.0114014605
110	0x3bb55dcf	0.0055348645
111	0x3c587356	0.013211092
112	0x3c8b4602	0.017001156
113	0x3d6d1828	0.057884365
114	0xbdabdda0	-0.08391881
115	0xbc9c0994	-0.019047536
116	0xbb767272	-0.0037604836
117	0x3d06ecc9	0.03294066
118	0x3d9ff989	0.07811267
119	0x3ba5c968	0.00505941

layers.6.weight f4 [10, 120]
0	0x3d24c9c0	0.040231466
1	0xbc69237a	-0.01422965
2	0xbd2e13fc	-0.042499527
3	0x3dd5faf4	0.10448256
4	0xbd46b761	-0.048514728
5	0xbe50c102	-0.20386127
6	0x3e656d47	0.22404967
7	0x3dfd14e8	0.12357503
8	0xbe0c2dc3	-0.13689332
9	0xbcb74a2b	-0.022374233
10	0x3dee270a	0.1162854
11	0x3e85c883	0.2612954
12	0x3caaf524	0.020868845
13	0x3e340c22	0.17582753
14	0xbe09b87b	-0.1344928
15	0xbd9792bd	-0.07401035
16	0x3dc12ac6	0.094319865
17	0x3e87b9d8	0.26508975
18	0x3cd97182	0.026543383
19	0xbde0d053	-0.10977235
20	0x3e4ae6ac	0.19814557
21	0x3d79cf07	0.060988452
22	0xbd03623e	-0.032076113
23	0xbc9e1f4c	-0.019302033
24	0xbdb3836d	-0.08765302
25	0x3e5d85bb	0.21633045
26	0xbd2efd95	-0.042722303
27	0xbdf24a73	-0.11830606
28	0x3d385366	0.04500141
29	0xbd08b461	-0.033375148
30	0x3dc74833	0.09730568
31	0x3e2c3903	0.16818623
32	0x3b14640e	0.0022642645
33	0x3c463349	0.012097188
34	0x3bce36be	0.006293147
35	0x3e1006ac	0.14065045
36	0x3de5c8c0	0.11219931
37	0xbd1a7137	-0.037705626
38	0x3bdc3147	0.0067197415
39	0x3de5beea	0.112180546
40	0xbd4df40a	-0.050281562
41	0x3e39426a	0.18091741
42	0xbdbac9c0	-0.09120512
43	0xbd980002	-0.074218765
44	0xbcace6f4	-0.02110622
45	0xbe2c383e	-0.1681833
46	0x3e21c3f2	0.15797403
47	0x3debfead	0.11523185
48	0xbdd4be2d	-0.10387836
49	0xbd3177c4	-0.043327108
50	0x3e50a208	0.2037431
51	0xbd25a1b8	-0.04043743
52	0x3ac84811	0.0015280267
53	0x3e92f77f	0.2870445
54	0x3e838f7f	0.25695416
55	0x3e34d17d	0.17658038
56	0x3e2e8ab5	0.170451
57	0x3e4addc4	0.1981116
58	0x3e1b8fdc	0.15191597
59	0x3d74e7bd	0.059791315
60	0xbe1d41d6	-0.15357146
61	0xbba2d214	-0.004968891
62	0x3e7ce9cd	0.24698563
63	0xbd93f5fb	-0.072246514
64	0x3e00d643	0.12581734
65	0x3a9d1e27	0.0011987136
66	0x3d1abcf9	0.037777875
67	0xbe6c8a34	-0.23099595
68	0xbce7a6e3	-0.02827782
69	0x3db743d9	0.08948488
70	0x3e6c4206	0.23072061
71	0x3d87b8cc	0.06627044
72	0xbe29a8bf	-0.16568278
73	0xbe0339b3	-0.1281498
74	0xbe144965	-0.14481123
75	0x3d8a9fe7	0.0676878
76	0x3d448d1d	0.04798614
77	0x3dc88f58	0.09792966
78	0x3db92e38	0.09042019
79	0x3e0cb73c	0.13741773
80	0x3d438db3	0.047742557
81	0xbe1e0e47	-0.15435134
82	0x3e0831ca	0.13300243
83	0xbdaf363f	-0.085552685
84	0xbd02d946	-0.03194549
85	0x3e890291	0.2675977
86	0xbe1836e0	-0.14864683
87	0x3d86afaf	0.06576478
88	0x3e3cd063	0.18438868
89	0xbe49b36f	-0.19697355
90	0x3da0a85e	0.078446135
91	0x3cd42bf0	0.025899857
92	0x3e2e9bd8	0.17051637
93	0xbe965789	-0.2936366
94	0x3b5b6999	0.003347969
95	0x3e777d75	0.24168952
96	0x3c49ab2e	0.012308879
97	0xbd69c8a8	-0.057076126
98	0x3c9f68b2	0.019459102
99	0x3e35a5b0	0.17738986
100	0x3e71d9c8	0.23618233
101	0x3e1472e6	0.14496955
102	0x3c94fd6f	0.018187253
103	0xbe6fbbdd	-0.23411508
104	0x3d85683c	0.06514022
105	0xbe0bee55	-0.13665135
106	0xbd412a4f	-0.04715949
107	0x3dd02562	0.1016338
108	0x3d1aff43	0.037841093
109	0x3cdd8e8c	0.02704551
110	0xbe8ded0c	-0.27719915
111	0x3c8f1356	0.017465275
112	0x3c8526cb	0.01625385
113	0xbe2bee6e	-0.16790172
114	0xbe349bcf	-0.17637561
115	0xbd83d94c	-0.064379305
116	0x3d60c78d	0.054877806
117	0x3e23a69e	0.15981528
118	0x3d43a50b	0.04776482
119	0x3e26f466	0.16304168
120	0x3e600c3a	0.21879664
121	0x3e8c9e33	0.27464446
122	0x3ca160b9	0.019699441
123	0xbcc3adbe	-0.023886558
124	0x3d442302	0.04788495
125	0x3c1f54ca	0.009724805
126	0x3e61e7c1	0.22061063
127	0xbde5fd18	-0.112299144
128	0x3db39e19	0.08770389
129	0x3da54d4a	0.08071382
130	0x3d870249	0.06592233
131	0xbe947410	-0.289948
132	0xbe63e946	-0.22256956
133	0xbe695707	-0.22787105
134	0xbe2905f3	-0.16506176
135	0xbe558a34	-0.20853502
136	0x3d4fda25	0.05074515
137	0x3e36688e	0.17813322
138	0x3e48d720	0.19613314
139	0x3d8aaca0	0.06771207
140	0x3d48ab49	0.048991475
141	0x3ce19b00	0.02753973
142	0x3cdbfc95	0.026853839
143	0xbe1780c0	-0.14795208
144	0x3e719e70	0.23595595
145	0x3bdb5c78	0.0066943727
146	0xbe7cb2bb	-0.24677555
147	0x3e309efd	0.17248149
148	0xbe194dcf	-0.14971088
149	0xbe5a3eab	-0.21312968
150	0xbdf4d2dd	-0.119542815
151	0xbe9ccde5	-0.30625835
152	0x3ed90eeb	0.42394194
153	0x3ddbf03f	0.10739183
154	0xbc861243	-0.01636613
155	0xbd2fd639	-0.042928908
156	0xbe3917b9	-0.18075456
157	0x3c921d21	0.017836155
158	0xbe43cd12	-0.19121197
159	0xbe4430db	-0.19159262
160	0xbd333e03	-0.04376031
161	0x3ddf3054	0.1089789
162	0xbe7bfe60	-0.24608755
163	0xbef9e277	-0.4880559
164	0xbe30fbfa	-0.17283621
165	0x3dc7f3e1	0.09763313
166	0xbe972b3c	-0.29525173
167	0xbdece238	-0.11566585
168	0xbda289f6	-0.0793647
169	0xbd717ff1	-0.058959905
170	0x3e8d580e	0.27606243
171	0xbe96c53d	-0.29447356
172	0x3dc89da7	0.09795695
173	0xbe199c93	-0.15001135
174	0x3eb1338f	0.3460965
175	0xbe52545d	-0.20539995
176	0xbe879361	-0.2647963
177	0x3d9be34f	0.07611715
178	0x3e886fc0	0.26647758
179	0xbeafbe56	-0.34324902
180	0xbda31403	-0.07962801
181	0xbea47294	-0.32118666
182	0xbe27e811	-0.1639712
183	0xbe0454b9	-0.12922944
184	0xbe14aebd	-0.14519782
185	0x3ca1eb1d	0.019765431
186	0xbd9cb5ed	-0.07651887
187	0x3cd93dc1	0.026518704
188	0xbe59ca02	-0.21268466
189	0xbe92942a	-0.28628665
190	0xbde966f3	-0.11396589
191	0xbebbf7a2	-0.36712366
192	0xbe724149	-0.23657717
193	0x3e83390b	0.25629458
194	0xbcb2b079	-0.021812664
195	0x3e085229	0.13312592
196	0x3e40cca7	0.18828069
197	0xbe42f24b	-0.1903774
198	0xbe22ee6d	-0.15911265
199	0xbdc4f55f	-0.09617113
200	0xbe90edc0	-0.2830639
201	0xbdfe2378	-0.12409109
202	0xbd911d4f	-0.07085668
203	0x3e8025e9	0.25028923
204	0x3de8e714	0.113722
205	0x3eaed072	0.34143406
206	0x3e0c1f5e	0.1368384
207	0xbc88e5e6	-0.016711187
208	0xbd28090f	-0.041024264
209	0xbea66892	-0.32501656
210	0x3da8b4e7	0.082376294
211	0xbe0001df	-0.12500714
212	0xbe4dac65	-0.20085295
213	0xbda49dac	-0.08037886
214	0x3d456d09	0.048199687
215	0xbe9cef6f	-0.30651423
216	0x3e4c5854	0.1995557
217	0x3b1fc6a6	0.0024379878
218	0xbdc75ae9	-0.097341366
219	0x3e7c1256	0.2461637
220	0xbe160bf6	-0.14653
221	0x3e605e5f	0.21911
222	0x3dac1e8b	0.08404263
223	0x3df22492	0.118233815
224	0x3e868459	0.26272848
225	0x3dadd743	0.084883235
226	0x3de40f46	0.11135726
227	0x3e0b9037	0.13629232
228	0xbed22ceb	-0.41049895
229	0x3dc591fd	0.09646986
230	0xbe90cca4	-0.28281128
231	0x3e3d5625	0.18489893
232	0x3d6a2dd2	0.057172604
233	0x3e8d52ee	0.27602333
234	0xbccf8d3d	-0.025335902
235	0xbaf3e9f4	-0.0018609152
236	0x3caa9560	0.02082318
237	0xbe3a593d	-0.18198104
238	0x3dea1363	0.11429479
239	0x3e124b94	0.14286643
240	0xbdc2daa9	-0.09514362
241	0xbad8bce4	-0.0016535786
242	0xbd825fa3	-0.063658975
243	0x3e042ad9	0.1290697
244	0x3d6fe7f2	0.05857081
245	0xbd2f08ec	-0.042733118
246	0x3c049892	0.008093016
247	0xbdf87b79	-0.121329255
248	0xbe4409e7	-0.19144402
249	0x3dbe90a3	0.09304931
250	0xbc9a6b62	-0.018850032
251	0x3e389962	0.18027261
252	0xbe127056	-0.14300665
253	0x3e493ddf	0.19652508
254	0xbe1d6115	-0.15369065
255	0xbe7badd1	-0.24578024

layers.6.bias f4 [10]
0	0xbd43c59a	-0.04779587
1	0xbe0045e7	-0.12526666
2	0xbc458616	-0.012055894
3	0xbb6c0d5a	-0.00360187
4	0xbe0fcbef	-0.14042638
5	0x3d91cf45	0.07119612
6	0x3d14a5bc	0.03629087
7	0x3ce66762	0.028125469
8	0x3c7d5850	0.01546295
9	0xbe09a9fe	-0.13443753
