image-classification/FashionMNIST/trained_models/fashion_cnn.pth (torch, 831152 bytes, 8 tensors)

conv_block.0.weight f4 [16, 1, 3, 3]
00000000: 6979 dfbe 2c00 c13e ce26 193d 1120 873e
00000010: 6497 153e 3357 e83c bd3f 943e 0a7e 53be
00000020: 6878 80be 8996 383e d802 63be c2aa 3e3e
00000030: b4ae b53d 109d e5bd be13 663e feac 48be
00000040: f02d cfbe 2c6b da3e 3a2d 763d f6f2 853e
00000050: 0c89 7c3c 7b3a 413e 7a3f af3e 990d e33c
00000060: b40e a7bc 3158 6e3d 845e bdbe 3794 0a3d
00000070: 912f edbc ba73 653d de99 c63e a469 c4be
00000080: d758 263e 2a0e 883e ed43 d8be eca0 843d
00000090: 9cf6 bbbd cdf4 02bf 709d c03e 4d6e 0fbf
000000a0: 381c 5bbe fb6a c03e 641f e93e 9109 ae3d
000000b0: 207d 773e 03e4 a6be f544 393e 0d02 573e
000000c0: e3a5 18bf 0ee0 113f 9216 573e 2999 4fbc
000000d0: 81e1 363e 7ab2 043e 1b27 58be 05d2 9ebe
000000e0: f9a0 edbe 3ae9 8e3e e28e ba3e 1e7e ed3e
000000f0: 19f6 493e 5e4a 793e 928f 0f3e 1a26 febe
00000100: 5a8f b3be 6437 203f 0e80 c2be 10fa 773e
00000110: 414b 1c3e c337 893e f250 863d 61c2 97be
00000120: e192 c13d 6315 d5be 88b2 ae3e ce29 88bd
00000130: 6002 e6bd f6b0 353e 8eed b23e 6ed4 7ebe
00000140: a51a a9bd e2a2 5b3e 3492 813d 5c62 783d
00000150: a1f6 c5bd 2f15 2cbe 3e3a b43e 2b0d b8be
00000160: a5ed 29be 4312 793e a178 333d 18bd 9c3e
00000170: 9eb1 aabe 4294 a03e 7480 3cbe e165 e2be
00000180: cae3 64be 3d5d d23e 35e2 87be d7f6 833d
00000190: de4a cf3e f275 05bf e984 b3bd c544 053f
000001a0: dbc2 81be 36a3 94be 9c0e f43d 5473 7b3e
000001b0: f4ee 22be 8ce0 913e 4334 d43d ba27 be3e
000001c0: 805c ccbc de92 913c 6e55 d7be f613 17be
000001d0: 8d7b 47be 464a 253e 46ca cebe 86a4 8e3e
000001e0: 3986 fd3e c1fe f8bd a3f7 00bf 5d34 8b3e
000001f0: 795a 9f3e 66be 9abe 91f0 bfbe 0786 79bd
00000200: c1f0 06be 683c 9abe 5379 96be 48b4 cb3c
00000210: aee3 8b3e 11bc d83e 79e8 df3d 516a 82be
00000220: 89a9 ca3d c91e 113e 3db0 05bf a6bd 0a3f
00000230: c3bd c03b f8d9 d2be 11cb 523e f7d2 563e
-0.43647316 0.37695444 0.037390523 0.26391652 0.14608532 0.028361892 0.28954878 -0.20653549
-0.25091863 0.18026175 -0.22169054 0.18619826 0.088712126 -0.11211598 0.22468469 -0.19597241
-0.40464735 0.4265989 0.060101725 0.26161927 0.015413534 0.18869965 0.34228116 0.027716445
-0.020392753 0.058189575 -0.36986172 0.033832755 -0.028953345 0.05601857 0.38789266 -0.38361847
0.16244827 0.26573306 -0.42239323 0.06476006 -0.091778964 -0.51154786 0.37620115 -0.5602768
-0.21397483 0.3758162 0.45531762 0.084979184 0.24168825 -0.32595834 0.18092711 0.20996876
-0.59628123 0.56982505 0.21004704 -0.012670794 0.1785946 0.12958708 -0.21108668 -0.31019607
-0.46411875 0.27912313 0.36437136 0.46385282 0.19722785 0.24344775 0.14019611 -0.49638444
-0.35070306 0.6258452 -0.37988323 0.24216485 0.15263082 0.26800355 0.06558408 -0.29640487
0.09451843 -0.4161788 0.34120584 -0.066485986 -0.11230922 0.17743286 0.34946865 -0.24885723
-0.08257035 0.21448854 0.06326714 0.060640678 -0.09666181 -0.16804956 0.35200685 -0.35947546
-0.1659456 0.24323373 0.043816213 0.30613017 -0.33338636 0.31363112 -0.18408376 -0.44218352
-0.2235252 0.4108676 -0.2653977 0.06443565 0.40486807 -0.52133095 -0.08765585 0.5205806
-0.25343975 -0.2903077 0.11916849 0.24555713 -0.15911466 0.28491628 0.10361531 0.37139684
-0.024946451 0.017770227 -0.42057365 -0.14753708 -0.19480725 0.16141614 -0.40388697 0.27859896
0.49516466 -0.121579655 -0.50377864 0.27188388 0.31123713 -0.30223387 -0.37488225 -0.060918834
-0.13177778 -0.3012421 -0.29389438 0.024866238 0.27322143 0.42330983 0.109330125 -0.25471738
0.098956175 0.141719 -0.52222043 0.5419563 0.0058819964 -0.41181922 0.20585276 0.20978914

conv_block.0.bias f4 [16]
00000000: e659 bc3d 6da7 463d 7c75 243d 0005 38bc
00000010: ca40 81be b743 3d3e 857a 4c3e fff3 d13d
00000020: c8b0 95be e58c e0bd 4c56 89be db11 4bbe
00000030: c246 fb3d 85c5 15be 7c72 69be bbaa f03d
0.09196834 0.048499513 0.040151104 -0.011231661 -0.25244743 0.18482862 0.19968612 0.10251617
-0.29236436 -0.109643735 -0.26823652 -0.1983103 0.12269355 -0.14626129 -0.22797579 0.11751314

conv_block.2.weight f4 [32, 16, 3, 3]
00000000: 7d22 083d 9ee4 34bc 721b 04be 6269 4cbc
00000010: 2230 5dbd 2198 97bc b608 a5bd 182f a23d
00000020: a1d3 f33d 758b 62bd efbd 9dbd 5b32 c13d
00000030: 6ec6 86be a480 86be 8f5d f3bd a692 863c
00000040: 31bb b03d 2f62 9abd 133d bb3c 2a2d 0d3e
00000050: 30a5 d4bd e9ce b03c c36b b5bd 67f8 0e3d
00000060: 478c b53c 7401 973d b530 103e 2f5a 0dbe
00000070: 0b13 8bbd a3e1 b9bd ddd3 f5bd 73ba bdbd
00000080: 1da9 e4bd b9bd 6f3c d3be 133e 59a1 923d
00000090: 7b86 b9bd 63bb cdbc d8e4 7d3d bdf5 9dbe
000000a0: 1226 943d ff34 9e3e 9226 7fbd e100 f23d
000000b0: 5938 c63d d2de 90bd 1a05 09be 4407 02be
000000c0: 5a1a 52be 0e02 6abe 688a c23b 4a3e 0f3e
000000d0: 7c42 c53d d756 fd3d 4407 003d 7439 64bd
000000e0: 0d6a c83d f57e 64bd cc02 4ebd 0361 a13d
000000f0: 9258 4e3e 8846 923e 209d 293e 622b d63d
00000100: 04bc d9bd ef76 2fbe fd87 05be fbb8 8fbd
00000110: 71cc 613e 10d7 76bd 2f8c 95bd cb94 cfbd
00000120: fa52 8fbc f5ba 10bd 6d69 d1bd 03b4 fbbd
00000130: 1df0 1cbd 0c3b 91bc efef 52be 8c86 55be
00000140: 5dda bfbd 0659 04be 9108 7ebb 3b2c 203d
00000150: b866 b9bd 6590 a0bd 2412 543c 90d1 0a38
00000160: 9705 6fbd 5a2e edb9 e0c6 fbbd 2cd2 c23c
00000170: 8635 803d 89fa b8ba 0b02 08bd 2dd0 b8bd
00000180: 1240 80bd cbcc 0abe 28ec 183e 5f1e 24be
00000190: 58c7 b7bd 97b1 dfbd c092 0bbd f83a f9bd
000001a0: c807 06be fa76 01bd b735 3bbe 6ee5 64bc
000001b0: a4b9 e53d f474 6b3d 1f03 263d 9db4 b0bd
000001c0: 6703 b9bd cf41 14be fecf 7abd 92b9 17bc
000001d0: 4e49 b03d 1d44 eebd 016b c0bd aee9 3dbe
000001e0: f927 603d 10b1 6bbe a9cb efbd ebfd c5bd
000001f0: f5ac a03d e11b c5bd f8ce 373d d0e9 0fbe
00000200: a70c b6bd 635b 1fbc 3817 623e f5af d03d
00000210: 444c 833d b07c 083d 7bf1 aa3d b549 46be
00000220: 605f 93be 84ad 2cbe d7f7 7dbe 8542 7bbe
00000230: e2b8 35be 2548 4e3c 145b c1bd 0946 e5bd
00000240: 6c35 03be 9c56 36bc a64c 343e 9ce6 4dbe
00000250: 2358 203d 314c ddba ee7b 13be ed9c 58be
00000260: ac1d cfbc 629b 69bc 699c abbd a592 28bd
00000270: ee09 223d 7c0f 8d3d 7686 9dbc 6fd4 63be
00000280: 1c84 69bd 3e27 a6bd 7498 09be 154e 23bd
00000290: 4ce1 733d b1ce 92bd 6a9d 4b3d 0485 e43d
000002a0: 3c30 95be 6487 f3bd 4a64 9f3d a14f 9b3c
000002b0: 3d92 85bd b180 333e 47b5 aa3d 1d2a 7c3c
000002c0: eb97 113e 79fb 2b3e 7ee4 09be 6825 01b9
000002d0: 8763 62bb 7e07 1e3e 3bdd eabd f935 17bc
000002e0: 0a20 eabd f978 f2bd 34ed f0bc ad7b 73bb
000002f0: e941 bdbd dd46 43bc 9ed6 e8bc 79c8 693d
00000300: e990 e73c be1e 39bd 8a72 a13d 6e6b 8cbd
00000310: fc60 bdbc 07fa 983d 2bb8 5cbd 2bfa 2c3d
00000320: 6116 74bd 3626 27be 06a1 223e 7657 f03d
00000330: 2348 1fbe 9d54 3ebe 8088 793d 1f93 debd
00000340: 3f69 a5bd 25a7 233c a3e6 09bd cc11 82bd
00000350: 5ca2 85bd 6760 cdbd fe04 57bc 098a debd
00000360: dce8 993d 1097 6cbd 40c2 03bd 7161 843e
00000370: a606 ce3b 9326 abbd 8433 323e 0576 9abd
00000380: e665 8cbd ccdd 15be cfa6 68bd 9cbd 683d
00000390: c440 063e ca6b 0f3d dcc5 88bd e045 99be
000003a0: 6bca 6dbd 7c40 043c 5764 3a3e 4e1f ca3d
000003b0: 455d e4bc fec0 85be 0f01 2fbe 00cc febd
000003c0: 07ce 23be 8309 5abe 13e6 3d3b 256a 1a3e
000003d0: b016 fe3c 8e23 b23b a26a aa3e 1dd7 803e
000003e0: 82cb 053e b903 7cbe a591 94bd 3965 d43d
000003f0: a95e 3f3e 0591 e33c db31 3f3d f496 1d3e
0.033236016 -0.011040835 -0.12901095 -0.012476297 -0.05400098 -0.018505158 -0.08058302 0.07919139
0.119055994 -0.055308778 -0.077022426 0.09433433 -0.26323265 -0.2627002 -0.11883079 0.01642735
0.08629454 -0.07538258 0.02285627 0.1378676 -0.103830695 0.021583037 -0.088584445 0.034904864
0.022161616 0.07373324 0.1408108 -0.13803934 -0.067907415 -0.0907624 -0.120033 -0.09264078
-0.11165068 0.014632636 0.14428262 0.07159681 -0.09058853 -0.025113767 0.06198582 -0.30851546
0.07233824 0.30899808 -0.062292643 0.11816574 0.09678716 -0.070737496 -0.13380852 -0.12698084
-0.20517865 -0.22852346 0.0059369095 0.13988605 0.096318215 0.12370079 0.03125693 -0.055718854
0.097858526 -0.05578514 -0.050295636 0.07879832 0.20150974 0.28569436 0.16563845 0.10457493
-0.10631564 -0.17135213 -0.13040157 -0.07017704 0.22050644 -0.060263693 -0.073021285 -0.10135802
-0.017495621 -0.035334546 -0.102251865 -0.12290194 -0.038314927 -0.017728351 -0.2059934 -0.20852107
-0.09367821 -0.12924585 -0.003876243 0.03910468 -0.09052795 -0.07840041 0.012943778 3.3096934e-05
-0.05835494 -0.00045238697 -0.12293792 0.023781858 0.06260209 -0.0014112751 -0.033205073 -0.090240814
-0.062622204 -0.13554685 0.14933836 -0.1602721 -0.08973569 -0.109225444 -0.0340755 -0.121694505
-0.13088906 -0.031607606 -0.1828221 -0.013970716 0.11217049 0.057484582 0.04053032 -0.08628199
-0.09033852 -0.14478229 -0.061233513 -0.009260552 0.08607732 -0.11634085 -0.093954094 -0.18546173
0.05472562 -0.23016763 -0.11708767 -0.09667572 0.07845489 -0.09624458 0.044875115 -0.14054036
-0.08889132 -0.009726378 0.2207917 0.10189811 0.06411031 0.033322036 0.0834684 -0.19364055
-0.28783703 -0.16863066 -0.24801575 -0.24537094 -0.17746308 0.012590443 -0.094412 -0.11194999
-0.12813348 -0.011129048 0.17607364 -0.20107502 0.039146554 -0.0016883669 -0.14402744 -0.21153612
-0.025282703 -0.014258238 -0.08379442 -0.041155476 0.03956025 0.06887719 -0.019229155 -0.22249006
-0.057010755 -0.081129536 -0.13437063 -0.039869387 0.05954103 -0.071683295 0.04971067 0.11158183
-0.29138362 -0.11891058 0.077828005 0.018958868 -0.06522033 0.1752956 0.08335357 0.0153909
0.14218108 0.16795148 -0.13466069 -0.00012316334 -0.0034544186 0.15432546 -0.114679776 -0.009229177
-0.11431892 -0.1183948 -0.029409982 -0.0037152574 -0.09241087 -0.011918751 -0.02842265 0.05707595
0.02826734 -0.045195334 0.07883175 -0.06856428 -0.023117535 0.07469564 -0.053886574 0.042230766
-0.059591655 -0.1632317 0.15881738 0.11735432 -0.15554862 -0.18586965 0.060921192 -0.10867905
-0.08076715 0.009988581 -0.033667218 -0.06351051 -0.06525108 -0.10028153 -0.013123749 -0.10866172
0.075151175 -0.057761252 -0.032167673 0.25855592 0.0062874136 -0.08356967 0.17402464 -0.07542042
-0.06855373 -0.1463539 -0.056799706 0.05682145 0.13110644 0.035014905 -0.06678364 -0.29936123
-0.05805437 0.008072015 0.18202339 0.09869252 -0.027876506 -0.26123804 -0.17090248 -0.12441254
-0.15996562 -0.21292691 0.0028976246 0.15079553 0.031016678 0.0054363674 0.3328448 0.25164118
0.13065913 -0.24610795 -0.07254342 0.10370869 0.18688454 0.027779112 0.046678405 0.15389615

conv_block.2.bias f4 [32]
00000000: 2385 81bd d2ca 693c 091b a1be 7653 733a
00000010: 5c1b 6f3b d085 fabd b36a 17be 664a 713c
00000020: bdad e7bd 165e 6dbe 7d52 dfbd b783 d2bd
00000030: ea08 a9bd e88b 12bd 6bd1 0dbe 12d8 a3bd
00000040: 461c b0bd e8f9 ffbc 1a2b c4bd edaa 233b
00000050: 7595 01be bfcd 71bd 96fa cdbd faa6 6fbd
00000060: b10a 043d ea79 18be 8a15 51be f323 16be
00000070: 9a5e ebbd e0a2 41bd 30a1 a3bd d0f9 96be
-0.06324222 0.014269548 -0.3146594 0.0009282151 0.0036484813 -0.12232554 -0.14786796 0.014727211
-0.11312435 -0.23180422 -0.10904405 -0.10279029 -0.08253653 -0.035777956 -0.13849418 -0.080001965
-0.08599143 -0.031247094 -0.095785335 0.0024973706 -0.1265467 -0.059034105 -0.10057561 -0.05850885
0.03223676 -0.14890257 -0.20418373 -0.14662151 -0.11492653 -0.04727447 -0.079897285 -0.29487467

classification_block.0.weight f4 [128, 1568]
00000000: 9e40 b0bd 54c0 2dbe 1823 ebbb 26a8 75bb
00000010: fc99 f9bd 8398 86bd e988 38be 4876 5e3c
00000020: 0210 d43d 4081 b4bc 0a0c 0abd a80a 99bd
00000030: 5be7 153e 7b49 3cbd 6556 b33d 7953 103c
00000040: 7365 883d 8658 853d f881 df3d 0f44 293e
00000050: cea1 943c 46a7 073d cb43 a93c 1a5f 1b3e
00000060: 59c3 313e 290e 243d a0f6 173d f22b 493d
00000070: f7fc 5c3c ad8e b83d 4887 a63d d777 b93d
00000080: 6651 9d3d 9870 a83d c7a3 893d 97d9 233d
00000090: e250 45ba 9fcb d33d 1cd6 303d bf52 283d
000000a0: 48f1 743d 597b 17bc 11e9 88bd 6f9b 92bd
000000b0: ae77 87bd 7c4b d5bd fc29 9abd 592b 16be
000000c0: 79b0 53be 3930 0f3e 463d edbb 6bae 11bd
000000d0: fa12 723d 9cff a2bc 0a80 8c3d 301f b7bd
000000e0: 9555 a23d 90b2 d0bd 0686 693c 1521 0b3d
000000f0: bfca 5a3d 9c10 35bd 47a4 1fbd 8cfc 383d
00000100: be66 aabc cb1f c1bb fd56 a4bc 75ae 04be
00000110: 9f1d e6bc 15f9 72bd 078c ec3d 309d e63c
00000120: 9e73 963c 5d3e 84bd 4d5a e83b 6069 ab3c
00000130: 2256 233d 9f35 093e a4a7 a1bb a80f 54bd
00000140: b30f 9ebb 6464 823d 6db2 3dbd f229 383c
00000150: e8f7 863d 5554 063c b641 96bd c4c1 7a3d
00000160: c46f 0fbc d200 89bd 56e7 11be 8060 2b3e
00000170: 8e46 013d a4f3 153a 9fb3 cc3d a81b 803e
00000180: d0cd 0e3e fcc0 2bbc 47d7 32be e91d ff3c
00000190: 5244 693d 1a67 90bd e1cf 47be 00fa 31bd
000001a0: 0138 9bbd f8b3 1b3b e6dd c7bc 6031 a83c
000001b0: c326 273d 8fdd b4bc be04 443d 0d03 b33d
000001c0: 5c42 81bc 662e 05be b69a 5e3d c5e5 aa3d
000001d0: 4016 1f3c 4a08 29bd cf82 f93d e9e7 323d
000001e0: 0877 183e 2b3d 0b3e 615f d7bc 732e ccbc
000001f0: 2d8d 75bd 79e6 f83d 8aed 753d ae97 f73d
00000200: 00f0 16bc 9097 293d dcf4 523c 91cd 14be
00000210: 9b15 613d 263c 443d 21f2 393e 0f5c fcba
00000220: f57e fc3c b205 44bd e282 2b3d d6e0 11bd
00000230: f2ba fdbd aeef bd3a 6d48 eabd c18f 82bc
00000240: 6182 7c3c 276d 293d 7f24 d9bd 1e02 853d
00000250: 5b68 f33c 7742 01be 586b 6abc 5ed3 043e
00000260: fdea c63d bb2a 88bc 4de4 a83d 22c2 e03d
00000270: 5b71 5cbd 3d28 043e 8d13 0c3e 6dce 24be
00000280: b114 273c 4304 853c 5e97 b03d 1757 823d
00000290: ccb1 1c3c f00d 9bbd c594 69bd 28b4 89bd
000002a0: 0743 053e e8d0 053e bef8 bdbc 7bdf 9cbd
000002b0: edc0 2cbd 4153 3abd 0e60 34bc 8a74 f23c
000002c0: 65de 4b3d 0794 8b3b 798d a53d a3c8 98bd
000002d0: 2a48 10bd f626 043d 45c9 88bd c562 8f3d
000002e0: 0c30 213d c2e4 bd3c 541f a7bd fab0 65bd
000002f0: 3697 b53d a723 673d f363 8a3d ac7e b63d
00000300: 911b 613d e5c2 e23d 3571 a33d 1d79 77bd
00000310: 3d0c 133c 4db1 ebbd b5ea 59bd 7a3d 79bd
00000320: f2f6 b7bc 25e3 a8bc e8b5 983d 6bf9 533d
00000330: 25cd e2bc cc12 9bbc 5d9a cf3c 2405 e2bd
00000340: 20b7 f1bd 5fce 113d c3c9 44bc 0cd2 213c
00000350: 4c46 f2bd 2978 c6bd ca4a 593c 0019 9536
00000360: 72af 61bc 1f8d c83d ebb9 993c 26d7 acbc
00000370: c713 8f3d d748 d53d b6ba ac3b 6fa2 ef3c
00000380: dea0 4d3d 55d6 803d 6361 d2bc a8c2 dbbc
00000390: dad0 b2bc 50e1 c5bd 06b2 6b3c b131 1b3d
000003a0: 9348 963d a874 7abd 7586 623d 4d6e 203d
000003b0: 233b 2bbd 2016 b13c c987 3a3a 89a1 25bd
000003c0: 1b28 1fbe 8353 1cbd 32da 2e3d e41b bf3c
000003d0: 1dcf e7bd e569 633e 5a07 9f3d 8ff3 673d
000003e0: 7f55 c63c 5a83 ebbc f55d 243e cb48 10be
000003f0: 4675 203e 8094 913d ac60 2c3c 1260 d13c
-0.08606075 -0.16967899 -0.0071758144 -0.0037484257 -0.12187573 -0.06572058 -0.18020977 0.013578005
0.10354616 -0.022034287 -0.033702888 -0.07472736 0.14639036 -0.045968514 0.08756713 0.008808964
0.06659975 0.06511025 0.109134614 0.16529869 0.01814356 0.03311851 0.020662209 0.15172997
0.17359675 0.040052567 0.037100434 0.049114175 0.013488046 0.09011588 0.081312716 0.09056061
0.07681541 0.082246006 0.06720691 0.04000243 -0.0007527006 0.10341572 0.04317294 0.041094538
0.059800416 -0.009245717 -0.06685079 -0.07158553 -0.06614624 -0.10414788 -0.07527539 -0.14664973
-0.20672788 0.13983239 -0.0072399704 -0.03556673 0.05910013 -0.019897275 0.06860359 -0.089414954
0.0792648 -0.10190308 0.014253145 0.033967096 0.05341601 -0.044205293 -0.038975026 0.045162722
-0.020800944 -0.0058936826 -0.02006101 -0.12957175 -0.028090296 -0.059319574 0.115501456 0.028151125
0.018365677 -0.06457207 0.007090843 0.02092427 0.039877065 0.13399361 -0.0049333144 -0.051772743
-0.004823649 0.06366804 -0.04631274 0.011240469 0.06590253 0.008198817 -0.07336752 0.061219946
-0.008754674 -0.066896096 -0.14248404 0.1673603 0.031561427 0.0005720204 0.099951975 0.250211
0.13945699 -0.010483023 -0.17464934 0.031142192 0.05694992 -0.07050915 -0.19512893 -0.04345131
-0.07579041 0.0023758393 -0.024397802 0.020531356 0.04080845 -0.022078304 0.047856085 0.08740816
-0.015778713 -0.13005981 0.054346763 0.08344606 0.009709895 -0.04126767 0.12183153 0.043678198
0.14889157 0.13597552 -0.026290597 -0.024924492 -0.05994909 0.12153334 0.060040988 0.120894775
-0.009212494 0.041404307 0.012875762 -0.14531542 0.054952245 0.047908925 0.18158771 -0.001925351
0.030822257 -0.047856994 0.041872866 -0.03561481 -0.123891726 0.0014490986 -0.11439595 -0.015937688
0.015411944 0.04136386 -0.10602664 0.064945444 0.029712847 -0.1262301 -0.014307819 0.12971255
0.09712789 -0.016621938 0.0824667 0.10974528 -0.05381904 0.12905975 0.13679333 -0.1609437
0.010197804 0.016237384 0.08622621 0.06364267 0.009563874 -0.07571018 -0.057026643 -0.06723815
0.1301385 0.13067973 -0.023189899 -0.07659813 -0.042176176 -0.045489553 -0.011009229 0.029596586
0.04977264 0.0042595896 0.080836244 -0.074601434 -0.03522507 0.03226372 -0.06679014 0.07001261
0.03935246 0.02318037 -0.08160272 -0.05607698 0.08866732 0.056430485 0.06757345 0.089108795
0.05495793 0.110723294 0.07980577 -0.060418237 0.008975086 -0.11508427 -0.05320235 -0.060849644
-0.02245662 -0.020616123 0.07456571 0.051751535 -0.027685711 -0.018929861 0.02534216 -0.11036137
-0.118025064 0.0355972 -0.012010994 0.009876739 -0.11829814 -0.096908875 0.01326246 4.4434564e-06
-0.01377474 0.09792542 0.01876541 -0.021098685 0.06986194 0.10414284 0.005271281 0.029252259
0.050202243 0.062908806 -0.025681203 -0.026826218 -0.021828104 -0.096621156 0.014385706 0.037889186
0.07338061 -0.06114641 0.05530401 0.03916769 -0.041804444 0.021616995 0.00071155705 -0.040437255
-0.15542643 -0.03816558 0.042688556 0.023328729 -0.113188006 0.22208364 0.07765074 0.05662876
0.02421069 -0.028749157 0.16051467 -0.14090268 0.15669736 0.07108402 0.010521095 0.025558505

classification_block.0.bias f4 [128]
00000000: 413b 17be 57e7 813c ccd2 51bd 9dcb febd
00000010: ab64 a43d 682e 883d c1d3 c63c 8a3e afbd
00000020: c3e5 a13c c2cd 10bd 8314 fbbd ec92 653d
00000030: e618 233d bc4e 7fbd 99ea 55bc b8a1 083d
00000040: 8548 ccbc 1d96 6fbd d13a eabc 0da3 bcbd
00000050: b7c7 00bd a99f 82bb 3aaa 8ebd 9462 853b
00000060: 8e1a a7bc 472d bd3b 05a8 06bb 00b6 a4bd
00000070: 8d3e 9d3c cc47 35bc 7a1a 8e3c 61bb bfbd
00000080: 15c8 a2bd 1bbb b0bd ca6f edbb 8dab d1bd
00000090: 3d76 8dbd cacd 8e3d 62d1 c8bc e1f7 90bd
000000a0: c310 3a3d a6d8 2abd 3692 ffbc 7fb5 abbc
000000b0: 0d74 ecbc 28a2 4d3c f4a5 63ba e6ef fabc
000000c0: ea43 203d 98ca c9bc 1d9e 42bb 33c9 d4bc
000000d0: 7e6c 64bc 2059 c3bd 9746 3bbd 13d2 bfbc
000000e0: ac1c bebc 05a8 bdbc a63d 923d 8a42 07bb
000000f0: 853e 153d 2c86 21bd 001f 16bd c9cc cabd
00000100: 81e9 ea3c dc34 53bc 0e01 dfbb c27b 493c
00000110: 4a00 10bc 4fd3 42bd 87f1 68bd 4727 a43d
00000120: 45de 093d d211 573b 18e5 3abd e7f5 fdbb
00000130: 20fb 043c c9a6 1abd 87a6 bfbc c264 e638
00000140: 10eb 86bd 5176 383d bfdd 91bd 8f05 3bbd
00000150: e841 18bc ae00 31bd 12e2 38bd c4fe b2bc
00000160: a012 9cbc eb47 72bc 58c4 2b3d 683c 5cbd
00000170: 5b0f 08bd abc1 a0bd 59d9 bf3c cabb 65bd
00000180: 3cb6 023b 7a16 d03b bd5e 2d3c 8b82 60bd
00000190: 726f 28bd 0828 0cbe 25a2 533c b03f 8cbd
000001a0: 5e68 733d bf83 75bd 1595 b3bd 6972 2a3d
000001b0: 1d46 453d d8e6 d33c d12d f63b 7594 a2bd
000001c0: c1e2 2fbd 3a10 53bd cce7 023c 6ed7 a7bb
000001d0: 16e1 d53c e812 633d 6c7e 2c3d 0a80 87bd
000001e0: eb11 533c d57d 0abe cc05 c53c ddf4 413d
000001f0: 14a2 243d c653 bcbd 64f8 08bc 9182 3e3c
-0.14768697 0.015857382 -0.051226422 -0.1244118 0.080270134 0.06649476 0.024270894 -0.0855685
0.01976288 -0.035352476 -0.12259772 0.05604832 0.039818667 -0.062330946 -0.013056421 0.033357352
-0.024936924 -0.05849277 -0.028592499 -0.09210787 -0.031440463 -0.003986318 -0.06966062 0.0040705893
-0.020398404 0.0057732197 -0.0020546925 -0.08042526 0.019194866 -0.011064481 0.01734661 -0.093619116
-0.07948319 -0.086294375 -0.0072459923 -0.10237799 -0.06907318 0.06972845 -0.024513904 -0.07078529
0.04542614 -0.04171052 -0.031197648 -0.020960568 -0.028863931 0.012550868 -0.0008684092 -0.03063197
0.039127268 -0.024632737 -0.0029696294 -0.025974846 -0.013941882 -0.095384836 -0.045721617 -0.0234156
-0.023207031 -0.023151407 0.07140665 -0.0020639026 0.036436576 -0.039434597 -0.036650658 -0.09902341
0.028675796 -0.012891021 -0.0068055457 0.012297573 -0.008789131 -0.0475648 -0.056870963 0.08015304
0.03365924 0.0032817018 -0.045628637 -0.007750261 0.0081165135 -0.037756715 -0.023394836 0.00010986022
-0.06587803 0.04503471 -0.07122373 -0.045659598 -0.009293057 -0.04321354 -0.045137472 -0.021849997
-0.01905185 -0.014787654 0.041935295 -0.053768545 -0.03321777 -0.07849439 0.02341907 -0.056087293
0.0019945046 0.0063503357 0.010581669 -0.054811995 -0.041121908 -0.13687146 0.012917076 -0.06848085
0.059425704 -0.059940096 -0.087686695 0.041613016 0.04816257 0.02586691 0.007512786 -0.07938472
-0.04294086 -0.051529147 0.007989835 -0.0051221168 0.026108306 0.055437952 0.042112753 -0.066162184
0.01288269 -0.13524564 0.024050616 0.04735266 0.040193632 -0.09195666 -0.008360002 0.011627809

classification_block.2.weight f4 [10, 128]
00000000: 811d d73c 57dc df3c f270 4a3e 9431 113e
00000010: 69c2 f33d 487d 943c e2b1 d6ba 96f2 a93e
00000020: 8480 63be d978 2d3e 032f 9ebe efcc 13be
00000030: 56ce 1fbc d342 8b3e de36 173d a86c d13d
00000040: 9de5 8abe 3c72 60be a2e8 b8bc 1f50 d5bd
00000050: 9549 abbe fb00 12be 7879 103c 32ed aabe
00000060: 1042 d3bb ea98 5e3e ab0b a1bd e1f6 1b3e
00000070: b3d2 b1be 29c8 a3bc 6760 8a3c 616c 01be
00000080: 7900 9c3e f2d8 8c3d 734e 623d 40c9 97be
00000090: 89bd 183e f0aa cf3d e43c ae3d 92cd 6abe
000000a0: 91a5 04be 25ae 103e 32b4 9f3c 6542 c1bc
000000b0: 1374 b53c dc5b 783d b5c4 0bbe c45b 4abe
000000c0: 1037 5cbe 2326 4f3d c2f5 2b3e 420f 8e3e
000000d0: a2fd 8f3d 2a0c f0bd 96c7 0bbe 0ed0 33bd
000000e0: 5156 0fbe db27 f1bd d2dd 80bc 9e80 183e
000000f0: d76f 913d 76ae 20be a6e3 df3d 9691 1b3e
00000100: c378 803d 1937 4d3d acfb 5a3e a9f6 8b3d
00000110: 0e02 12bd cdc0 c1bd c70e bc3d b94a c2be
00000120: 4a3b ad3d b82a 24be 225d c63d 2483 d3bd
00000130: 3bdf fbbd f17d 5e3d 57e2 23be 23c4 1c3e
00000140: 9fb3 fe3d c68f a83d acac 2ebe 1003 3bbd
00000150: 642d f43d 9b16 fb3d cd82 d03d 9864 e03d
00000160: 008a 0ebd 3207 f9bd f9a1 09be db98 b4be
00000170: 6d78 7dbe 838e 5c3d 1b49 8b3d fdf2 39bc
00000180: 8ff9 60be 08eb a5be 6d03 803d d3d1 d7bd
00000190: 726c 3cbe d480 4d3e b528 9f3d 03f1 753c
000001a0: 30a9 973d ac4c ca3c 72c7 e2bd b3c5 0f3d
000001b0: bc26 d6bd cbd8 e83d 5ca1 c5bd d30e b2bd
000001c0: 6a0d 8fbe c08e 343e f866 dbbb 9075 be3b
000001d0: 5aad 83ba 0da0 923c 11bf 35be 163a 97be
000001e0: 363c 7dbe f2a4 95bd 31e6 ae3c da3c 81bd
000001f0: 1793 3ebe 8272 78bd 9134 dbbc 0936 233e
00000200: 7744 003d ce4c 39be 400d 38be 094d e5bc
00000210: a733 483d ea2f 143d 8057 8dbd 1496 57be
00000220: da96 b3bc a6a8 9d3d 1cf1 743c 3a69 45be
00000230: 0495 e2bd 9c00 f2bc d2fd 653d 787a aebe
00000240: c841 893c 4829 a73d 0bac 6f3d b1ed b0be
00000250: 67e6 47be a389 6f3e 129b d3bd af0f c43d
00000260: ce53 e8be e4b7 863e 8714 21be 4165 27be
00000270: de74 e83d b95a a13d 2414 943d 6442 6d3a
00000280: 861d 05be 19df 68be fce2 fcbd bcaf 9a3a
00000290: 848e 8fbe 881f 3ebd d0f2 39be d77c 1d3d
000002a0: 6027 033c f8ca 023d c67f b5bd 8a3a 73be
000002b0: 4bde 603e 6792 95be e7f4 68bc 7040 2cbe
000002c0: a2ce 27be 2308 883e 244e afbd 1adc 64bd
000002d0: 7883 2f3e 9302 a13d 5cfb 04be f7a9 9abe
000002e0: 5e18 10be 2b60 3fbe 2590 67be e11a e53d
000002f0: b33b 62be 9d36 563d 8670 fe3d 3440 5f3e
00000300: 801b 9dbe b688 eebd c516 13be a350 58be
00000310: 2c17 45bc a4e3 dabd 79f2 dcbe 0787 8abe
00000320: a2cb 5cbe 3f76 a43e 8547 133e 735e 8b3c
00000330: 646d bc3e 1df8 e2bd c718 edba 464f d5be
00000340: 1257 ca3d 94eb dfbe da5b 1bbd 8b0c 07be
00000350: 71ba 8abe 4983 debc a976 4abd 4f66 4dbe
00000360: c793 503e e84f f33d c2cf dc3d dea1 84be
00000370: b1a8 c7bd 0583 b2be cb89 dfbd 5778 3ebd
00000380: efcc ea3e 243b 9a3d 5683 39be b6f7 043e
00000390: 28a0 4c3e 81ec 26bd 4864 953d 4942 1dba
000003a0: 6802 083e dc44 9cbe 1109 93bd bfae 5cbe
000003b0: 4f3d be3d 9a9e 17be f96b 61be 9252 7f3e
000003c0: 5cca a3bd 83d9 d23d 2e8f 3cbe 8979 e03d
000003d0: 4ff3 4dbd fa4a 743d 89f7 7ebe 7a77 f8bd
000003e0: a21d 6c3d 996c 073d 199c 12bb 7623 d0bd
000003f0: 92cd b2be 9d1f 19bd b8fc f1bd 54e1 c8bd
0.026259186 0.027326746 0.19769648 0.14179069 0.11902315 0.018126145 -0.0016379918 0.3319289
-0.22216994 0.16940631 -0.30895242 -0.14433645 -0.009753784 0.2719942 0.03691756 0.10225803
-0.27128306 -0.21918577 -0.022571865 -0.104156725 -0.33454576 -0.14258187 0.008818023 -0.3338409
-0.0064470842 0.2173802 -0.078635536 0.15230896 -0.34731063 -0.019992905 0.016891671 -0.12639
0.3046911 0.068773165 0.055250596 -0.2964573 0.14916052 0.101400256 0.08507708 -0.22929981
-0.12953784 0.14128931 0.019495104 -0.02359123 0.022150075 0.06063448 -0.13649257 -0.19761568
-0.2150538 0.05057348 0.16792968 0.27746016 0.070307985 -0.1172107 -0.13650355 -0.04389959
-0.13997771 -0.1177518 -0.015730772 0.14892814 0.0710141 -0.15691552 0.10932092 0.15192255
0.062730335 0.050101373 0.21385068 0.06834156 -0.03564649 -0.09460602 0.09182506 -0.37947634
0.08458574 -0.16031921 0.096857324 -0.103277475 -0.12298437 0.054319326 -0.1600431 0.15309195
0.12436604 0.082305476 -0.17058057 -0.045657218 0.1192272 0.12260171 0.10181198 0.10956687
-0.034799576 -0.121595755 -0.13440694 -0.3527287 -0.2475297 0.053846847 0.06801053 -0.011349437
-0.21970199 -0.32405877 0.062506534 -0.10538068 -0.18400744 0.20068675 0.07771436 0.015011075
0.07405317 0.024694763 -0.110731974 0.03510065 -0.10456607 0.11369475 -0.096499175 -0.08694234
-0.27939922 0.1763258 -0.0066956244 0.0058123544 -0.001004617 0.017898584 -0.17748667 -0.29536504
-0.2473 -0.073068514 0.021349998 -0.06310435 -0.18610798 -0.06065608 -0.026758464 0.15938582
0.031315293 -0.18095705 -0.17973804 -0.027990835 0.048877385 0.036178507 -0.06901455 -0.21053344
-0.021922518 0.07698183 0.014950063 -0.19278422 -0.11063579 -0.029541306 0.056150265 -0.3407781
0.016755 0.08162171 0.058513682 -0.34556344 -0.19521485 0.23392348 -0.10332312 0.09573304
-0.45376438 0.26312172 -0.15730487 -0.16347219 0.11350416 0.07878632 0.07230404 0.00090507255
-0.12999544 -0.22741355 -0.12347981 0.001180164 -0.28038418 -0.04641679 -0.18159032 0.038449135
0.008004993 0.031931847 -0.088622615 -0.237528 0.21959798 -0.2921326 -0.0142185455 -0.16821456
-0.16387418 0.26568708 -0.08559826 -0.055873968 0.17139995 0.07861819 -0.12986511 -0.30207798
-0.14071795 -0.18689029 -0.2261358 0.11186767 -0.22093086 0.052298177 0.12423806 0.21801835
-0.30685043 -0.11647169 -0.14364155 -0.2112451 -0.01202945 -0.1068795 -0.43153742 -0.27056143
-0.21562055 0.32121465 0.14382751 0.01701281 0.36802208 -0.1108248 -0.0018089049 -0.41662043
0.098798886 -0.4373442 -0.037929393 -0.13188379 -0.27095369 -0.027162211 -0.04942957 -0.20058559
0.20368873 0.11880475 0.10781814 -0.25904745 -0.09748972 -0.34865585 -0.10914954 -0.046501484
0.45859477 0.075308114 -0.18116507 0.12985119 0.1998297 -0.04075289 0.07294518 -0.0005998952
0.13282168 -0.30521286 -0.07179464 -0.21551035 0.092890374 -0.14806595 -0.22013845 0.24933842
-0.07997581 0.10295393 -0.18413994 0.10960681 -0.050280865 0.059641816 -0.24899115 -0.12132163
0.057645448 0.03306255 -0.0022370873 -0.10163014 -0.34922463 -0.037383664 -0.118157804 -0.09808603

classification_block.2.bias f4 [10]
00000000: f13a 453d be1a 2bbe 2f04 c3bc 0be0 113d
00000010: b891 953d b879 7a3b 7f93 e63d 03ff a43c
00000020: 930d 63bc cf3b eb3c
0.048151914 -0.1670942 -0.023805706 0.035614055 0.07303184 0.0038219523 0.112586014 0.02014113
-0.013858217 0.028715042
