image-classification/FashionMNIST/trained_models/fashion_cnn.pth (torch, 109552 bytes, 8 tensors)

layers.0.weight f4 [16, 1, 2, 2]
000000 c8 73 b3 be 35 c8 29 bf 6b e4 a3 3e 63 28 3f 3f
       -0.35049272 -0.66321117 0.32010207 0.74671
000010 4e 37 1f bf 7d 40 10 3f ed d3 ab be 45 a7 a0 3e
       -0.62193763 0.563484 -0.33560124 0.31377617
000020 c1 9b 58 3f 85 f3 35 3e 46 58 8b be 33 a1 41 3e
       0.8461266 0.17768677 -0.27215785 0.18909149
000030 73 6a 26 be 57 98 25 bf 10 45 48 3d ef 7d a8 be
       -0.16251545 -0.6468558 0.048893988 -0.3290858
000040 91 bc 4c 3d c2 45 50 bf 62 bb 69 3f 1e ad 2d bf
       0.04998452 -0.8135644 0.9130155 -0.6784228
000050 bc 05 a3 be 6d 37 2d bf ad c5 00 bf ca 9b 15 bd
       -0.31840312 -0.676627 -0.5030163 -0.036525525
000060 eb 74 c8 3e 80 3c dd 3e c1 ae de be c4 9c 1f 3f
       0.391517 0.4321022 -0.43492702 0.6234858
000070 cf fa b2 be e8 bf ea 3e 3f 8d 86 3e b6 0c 48 bc
       -0.34956977 0.45849538 0.26279637 -0.012210062
000080 f6 30 c8 be 59 03 76 be 02 e6 0d be d1 7d ce be
       -0.39099854 -0.24024715 -0.13857272 -0.40330365
000090 d8 f1 20 bf 51 e5 3d be 11 e8 11 3f 1f 30 0e 3e
       -0.62869024 -0.18544509 0.5699473 0.13885544
0000a0 bb 7c 26 3f 95 ad 34 be 00 73 b5 3e 44 ac 85 3e
       0.65034074 -0.17644341 0.354393 0.2610799
0000b0 a1 7e 7c 3d 34 87 36 bf f8 91 da bc 8e 07 dc be
       0.0616442 -0.71300054 -0.026680931 -0.42974514
0000c0 42 c3 d9 be b6 5e da 3e f1 10 3b bf eb 34 36 3f
       -0.42531782 0.42650384 -0.73072726 0.71174496
0000d0 db 3a e9 3e 03 5a 7c 3e 44 c0 0b 3f 07 e3 1c 3c
       0.45552716 0.24643712 0.5459025 0.009575612
0000e0 ab ca 49 3d 8a 72 d7 bd a0 fb 16 bf 75 e7 d9 be
       0.049265545 -0.105198935 -0.589777 -0.425594
0000f0 41 34 e3 3d 5b 1b aa 3d c2 cd 2b bf 71 c9 01 be
       0.11093951 0.08305999 -0.67110837 -0.126745

layers.0.bias f4 [16]
000000 59 e2 ab be 4a f7 32 be 50 db 7a be 82 32 fb bc
       -0.33571127 -0.17477146 -0.24497724 -0.030663732
000010 ec 92 21 3e d8 cf b0 be 0e 93 ce 3e 61 89 08 3f
       0.15778702 -0.34533572 0.4034657 0.53334624
000020 86 a6 31 bf 15 84 3a 3e 52 66 c2 be d8 2e 01 be
       -0.6939472 0.18214448 -0.3796869 -0.12615526
000030 99 d1 1d bc 4f d8 5b be 46 7b 82 be 3d 44 7c 3e
       -0.0096324915 -0.21469234 -0.25484675 0.24635406

layers.2.weight f4 [8, 16, 3, 3]
000000 66 79 7b 3e c6 49 66 3e 87 82 8d 3e a9 c3 71 bd
       0.24558029 0.2248908 0.27638647 -0.059024487
000010 95 16 a3 3d 8c 13 9f 3e 59 41 49 bd 4a bf e1 bd
       0.079632916 0.310696 -0.049134586 -0.110228136
000020 a8 88 93 3e 2a 70 29 3e f7 63 1f be c0 05 82 bd
       0.28815198 0.16546693 -0.15565477 -0.06348753
000030 e5 6a ba 3e 1f 31 85 3e 47 ed 00 bd c8 b6 93 3e
       0.3640968 0.2601404 -0.031476285 0.2885039
000040 93 a8 96 3d 72 19 a5 bd bd 9e ac bb 42 06 30 bd
       0.07356372 -0.08061494 -0.0052679465 -0.042974718
000050 6d b8 26 be a4 08 94 3e b1 1a 02 3e 91 df d1 bd
       -0.1628129 0.28912842 0.12705494 -0.1024772
000060 01 60 ce 3d ca 61 a6 bc bb 33 6c 3e b0 d5 f0 bd
       0.10076905 -0.020310301 0.23066609 -0.11759508
000070 8e 58 11 3e ce 3b 6e 3e 98 89 0f be 49 2d 8d 3c
       0.14193937 0.23265001 -0.14017332 0.017233508
000080 55 db a7 bd 12 98 55 3d 9f 52 03 bd 77 79 76 bc
       -0.08196131 0.05214698 -0.032061215 -0.015043608
000090 33 04 63 be 9e c7 57 3e b6 21 65 3e 34 a9 e8 3c
       -0.2216957 0.21072242 0.22376141 0.028400995
0000a0 b8 3c eb 3d a0 bf 3e bd 45 9b 0d be f3 0f 5a be
       0.114861906 -0.046569467 -0.13828762 -0.21295147
0000b0 81 99 cb bc 65 2b 0d be 65 56 c2 3c 95 7a bd 3e
       -0.02485347 -0.13786085 0.023722837 0.37007585
0000c0 89 38 39 be a1 47 ea 3d bf b1 96 3d d9 90 b0 3d
       -0.18087973 0.114394434 0.07358121 0.086213775
0000d0 91 f7 c9 bd 04 cd 64 bd 6e 91 52 3e 3b f5 ba 3a
       -0.09861673 -0.05585958 0.2056329 0.0014263758
0000e0 35 75 88 be 3f 0e 6f 3e 17 dc 19 3e da 2b 3d be
       -0.26651922 0.23345278 0.15025364 -0.1847376
0000f0 f2 3a a9 3d 1d b9 90 3c 08 0b e7 bb cd 6e c2 3d
       0.08263196 0.017666394 -0.0070508756 0.0949379
000100 c0 55 98 bd cc 3f b4 bd 3a a9 1b 3d 8c 81 08 3e
       -0.074382305 -0.08801231 0.038003184 0.13330668
000110 49 f6 bd bd a6 e8 b0 bd a1 bd 0f be 90 7d f1 bc
       -0.09275491 -0.08638124 -0.14037181 -0.029478818
000120 98 a0 03 be 7d 46 26 3e 30 47 0b 3f 17 f5 ae 3d
       -0.1285423 0.16237827 0.544055 0.08542841
000130 b0 6a f6 3c b7 b6 26 3e 63 24 03 3e 04 fa 23 3c
       0.03008017 0.16280638 0.12806849 0.010008339
000140 4a 22 be 3d 5d d3 24 be c6 f6 a9 3d 29 5a 25 3e
       0.09283884 -0.16096254 0.082990214 0.16147675
000150 e7 51 d1 bd 85 34 e7 bd 1e a2 97 3d 10 e9 d6 bc
       -0.102207 -0.11289314 0.07403968 -0.02623418
000160 12 b2 d9 bc 00 cb c1 bd fe 5d 52 3e 51 60 31 3e
       -0.026574168 -0.09462547 0.20543668 0.17321898
000170 0a 25 d2 bd be d3 6a 3e b6 5f 2c 3e 1d 11 37 3d
       -0.10260971 0.22932336 0.16833386 0.044694055
000180 17 e7 58 3d 09 ef 7d bd 08 1f 2a 3e b5 79 f1 bd
       0.05295476 -0.06199554 0.166134 -0.11790792
000190 f6 de 61 3e ab ac 0a 3e 06 ab 00 3b 5c e2 3c 3e
       0.22057709 0.1354243 0.0019633188 0.18445724
0001a0 67 3c 29 bd c6 8a d1 3c 0a d8 8a bd 04 6a 62 bd
       -0.04131737 0.025578868 -0.067794874 -0.055276886
0001b0 51 1c 93 3e e2 7e 44 3b b0 25 53 be fe cc c8 3e
       0.2873254 0.0029982855 -0.20619845 0.39218897
0001c0 7b 1c 7b 3e e0 35 67 be e7 86 64 3e 5e 05 10 be
       0.24522583 -0.22579145 0.22317086 -0.14064547
0001d0 7f c9 d8 be 8c 59 14 3e 45 5f 68 3e d7 87 ac bd
       -0.4234123 0.14487284 0.22692592 -0.08424347
0001e0 ec 84 9f 3e a6 42 16 3e 85 5e f0 3b a1 0d 11 3e
       0.311561 0.14673862 0.0073354864 0.14165355
0001f0 3a d9 ce 3d c2 40 d6 3d 2b 6c f6 bd d4 dc f5 3d
       0.101000264 0.1046157 -0.1203235 0.1200501
000200 71 6a 8d 3e cf 20 54 bd 49 d7 c2 3d 0c 5d b9 bd
       0.2762027 -0.0517891 0.09513719 -0.090509504
000210 6f a9 e9 3b 9f e0 16 bd 8e 23 a7 3d 1e 83 20 be
       0.0071307938 -0.03683531 0.081610784 -0.15675017
000220 7c b9 9c bc b3 a0 56 3e cf 59 13 bd 69 b1 5a 3d
       -0.019131415 0.2095974 -0.03597432 0.053391848
000230 05 53 02 be af dd d1 bd 34 2a ad bd 92 5d 06 be
       -0.12726982 -0.10247361 -0.08455315 -0.13121632
000240 f6 25 85 3c 47 eb c3 3d 20 ee 8f 3c e5 ae 99 3d
       0.016253453 0.0956636 0.017569602 0.075040616
000250 84 3a 9b 3e 95 2c 8d 3e ea 43 d2 bc 6d 57 f9 3d
       0.3031808 0.27573076 -0.02566715 0.12174878
000260 7a d6 b1 be 83 27 33 3e 94 08 a3 3d 4f 42 d3 bd
       -0.34733945 0.17495541 0.079606205 -0.10315382
000270 c9 02 9d be d3 52 80 3e 8c 14 ff 3d 59 05 57 be
       -0.30666187 0.2506319 0.12455091 -0.20998134
000280 59 90 7e 3e b6 12 9f 3d 74 08 95 3d 52 88 86 3e
       0.24859752 0.07767241 0.07277003 0.2627588
000290 6b 28 af 3d f2 0b b9 bd 82 7f a6 3d 6e 77 96 bd
       0.08552631 -0.090354815 0.08129789 -0.07346998
0002a0 89 61 3d 3d 2b 93 12 be b6 67 84 3e 09 83 04 be
       0.046235595 -0.14313953 0.25860375 -0.12940611
0002b0 39 17 ab bc 95 c9 0c 3e ad 5a e0 bd 7c 2f ee 3d
       -0.020885097 0.13748772 -0.10954795 0.11630151
0002c0 50 9a 8d 3d 31 5c e4 3c a2 c2 8b 3e ea 7d 21 bd
       0.069141984 0.027875992 0.2729693 -0.03942672
0002d0 e5 27 a7 be f8 31 80 be 66 28 ef 3d 32 84 00 be
       -0.32647625 -0.25038123 0.11677627 -0.12550429
0002e0 98 81 02 bd 51 4e 67 3e 4d bf b8 3d 79 05 85 be
       -0.03186187 0.22588469 0.09020863 -0.25980738
0002f0 40 e8 20 3e ab 7d 22 bd 12 4b ac 39 5b 0a 83 3c
       0.15713596 -0.039670628 0.00032862328 0.015996149
000300 5c fe f5 3a 3c 62 40 3e 85 92 36 3d 8f 15 f3 3d
       0.0018767822 0.18787473 0.044573326 0.11869346
000310 5a 6c e7 3e 8c 73 6d bd 7e 83 13 3b ad 88 20 3e
       0.45199853 -0.057971522 0.0022508795 0.15677138
000320 e9 61 a0 3d 96 c6 02 be 02 66 8f 3c 2b 1b a3 bd
       0.07831175 -0.12771067 0.017504696 -0.07964166
000330 de d1 00 be 6a 51 a1 bd 91 ea bb bc c0 95 77 bd
       -0.12580058 -0.078768566 -0.022938998 -0.060445547
000340 93 5f 08 bd 5f d0 45 be 07 d6 8f bd c5 e2 c8 bd
       -0.03329427 -0.19317769 -0.07023244 -0.09808878
000350 dd b6 3d bd 26 2f fe be f1 51 a8 bd 30 9b f8 bd
       -0.04631697 -0.49645346 -0.08218754 -0.12138975
000360 37 b9 04 3e d1 d9 a3 3d 91 49 16 3e ee 92 8c 3d
       0.12961279 0.080005296 0.14676501 0.06863962
000370 26 5d 61 3e 15 e2 0a 3c de 21 9e 3e c0 56 16 3f
       0.2200819 0.008476754 0.30885214 0.5872612
000380 87 87 fa 3d c2 3b f0 bd ff 95 13 be d2 56 29 bd
       0.12232881 -0.11730148 -0.14412688 -0.041342564
000390 a7 27 a4 3d ce 99 66 3d f1 03 a9 3d f2 25 08 bd
       0.080153756 0.056299023 0.08252705 -0.033239312
0003a0 1c 97 cc bd 9d 06 9e be d7 e8 e7 3d 8a ec 38 3e
       -0.09989759 -0.3086442 0.113237076 0.18058982
0003b0 05 17 0d 3e 28 74 a8 bb 0c d5 af 3c 4e b5 e7 3d
       0.13778313 -0.0051408 0.021463893 0.11313878
0003c0 d5 33 b8 3d fa 0c 05 be 1a e7 9b 3e c3 f0 10 be
       0.08994261 -0.12993231 0.30449754 -0.14154343
0003d0 98 90 ff bd ae b7 16 3e 95 5a 87 bd a1 c7 b2 3c
       -0.12478751 0.14718506 -0.06609074 0.021823706
0003e0 aa b6 6d 3c 78 dd a0 3d 34 eb aa 3e 80 86 18 3e
       0.014508883 0.07854742 0.3338257 0.14895058
0003f0 df 36 8d bc de 45 00 3e be 79 f9 bb d7 10 8d be
       -0.017238079 0.12526652 -0.0076133898 -0.2755191

layers.2.bias f4 [8]
000000 0c 77 a2 be de d4 a6 be bb fd 77 be 0a 33 7e be
       -0.3173145 -0.3258428 -0.24217884 -0.24824157
000010 e8 bf 23 bd bf 00 89 be ac 21 8c be 77 db c4 bd
       -0.039977938 -0.26758382 -0.2736944 -0.09612172

layers.5.weight f4 [120, 200]
000000 fa b8 f3 3d 2d 03 f6 bc 14 4c f5 bd c1 5e 97 bd
       0.11900516 -0.030030811 -0.119774014 -0.0739112
000010 6a c4 b0 3c cc 4a 45 3e 54 86 9b 3d f1 cf a6 bd
       0.021578033 0.19266814 0.075939804 -0.081451304
000020 12 ff ca bd 1f 37 cf bd fb c2 07 3e c5 f9 24 3e
       -0.09911932 -0.101179354 0.13257973 0.16110905
000030 2a 92 8a bc 66 60 e8 bd cc 3b 2b be 0a 49 5d bc
       -0.0169154 -0.113465115 -0.1672203 -0.013506183
000040 69 98 e8 3d 78 78 4f be 81 47 83 bd 5d f9 3e bd
       0.11357195 -0.20260799 -0.06410123 -0.04662453
000050 96 69 66 3d 2a 24 d9 3b 4f a3 5e bd 2d 4f e3 3c
       0.05625304 0.0066266255 -0.054354962 0.027747715
000060 2b 08 73 3d 21 83 09 3d b6 b6 ef 3b db 3f c6 3d
       0.05933396 0.03357232 0.007315482 0.09680148
000070 9e 60 af bc 56 2e c7 3c 8f 7f 04 be eb 0f 4f 3c
       -0.021408375 0.024314087 -0.12939285 0.0126380725
000080 e6 5a 6f 3e d6 92 a6 3c 6b 28 3c be c8 4c b3 3c
       0.23374519 0.020333689 -0.18374793 0.021887198
000090 42 c4 0c 3d 9a 0a b0 3d 1b a4 87 be 4f 3d 6b 3d
       0.034366854 0.08595772 -0.2649239 0.057431515
0000a0 a2 0c 37 b9 25 1c b3 bd 10 72 bc 3d 93 02 ac bd
       -0.00017456946 -0.087456025 0.09201443 -0.083989285
0000b0 4b 07 27 bc 73 b0 ae 3c 20 97 1a 3c bc 2e f1 bc
       -0.01019461 0.021324372 0.009435445 -0.02944123
0000c0 a2 6b 4c 3d e9 79 c4 bd 08 4d 4f bd 3e dd 9f bc
       0.049907334 -0.09593565 -0.050610572 -0.019514676
0000d0 e0 9d bb bc ff c7 19 be 98 01 7d 3d a3 a8 9a bd
       -0.02290243 -0.15017699 0.061769098 -0.07551696
0000e0 0e 20 f0 ba 94 3e 31 3d 8b fd 91 bd 71 b5 15 3e
       -0.00183201 0.04327257 -0.071284376 0.14619996
0000f0 9a 6a a5 bb cb 11 14 3c a1 66 37 3d bc 68 94 3c
       -0.0050481083 0.009037445 0.04477561 0.018116347
000100 4f dc 1e bd 0c 0d 28 3b 7c 3e ea 3d e4 cc 13 3e
       -0.03878432 0.0025642542 0.11437699 0.14433628
000110 53 a2 c5 3d eb 30 c1 bd fd ec 5f bc e9 07 46 3d
       0.096501015 -0.094331585 -0.013667342 0.048347387
000120 ef 86 b5 bd df a4 17 3e 61 6d 39 3e 7f fb a0 bd
       -0.08863627 0.14808987 0.18108131 -0.07860469
000130 40 2b ef bd 3c f8 cb 3d 05 06 b6 bd e5 fc 8c 3d
       -0.11678171 0.09959456 -0.08887867 0.06884173
000140 1f 30 5f bd ce 28 2b be 21 39 02 bc 96 60 37 be
       -0.05448925 -0.16714785 -0.007948191 -0.17907938
000150 a8 fd 14 3e 3b 89 7d 3e 3b 72 c7 3c 61 fc 81 3d
       0.14549887 0.2475938 0.024346462 0.063469656
000160 56 a5 8a bc bd be d8 3d 23 0d 14 bd 34 3c a3 bd
       -0.016924541 0.105832554 -0.03614534 -0.07970467
000170 4d 31 a2 bc 6e 80 ab bc 9a f9 ea bd a1 9b 23 3d
       -0.0197989 -0.020935263 -0.11473389 0.03994334
000180 9c a1 25 3d 34 95 1a bd f1 d1 c3 3d 37 fc 28 3d
       0.040437326 -0.037739947 0.095615275 0.041256156
000190 f0 28 bc 3d 1d ec 97 bd a5 65 55 bd 97 6b 84 3d
       0.09187496 -0.07418082 -0.05209889 0.06465834
0001a0 4d 81 aa 3e 6b ba 2a 3e cb 3c 28 be 0b ed 6d bd
       0.33301774 0.16672675 -0.1642944 -0.05808739
0001b0 3f 3d ad 3b 1d ed 9a 3e 42 07 0d 3e 37 db ce bd
       0.005286842 0.30259028 0.137723 -0.10100406
0001c0 28 c4 ea 3d 35 f6 81 3d 48 25 3f 3d 7a 9e c0 3d
       0.11463195 0.063457884 0.046666414 0.09405227
0001d0 f6 0d df 3d 7f 3c 70 3e f4 58 24 3e f4 85 d7 3c
       0.10891335 0.23460577 0.16049558 0.026308991
0001e0 5c 89 73 3d a3 cd 30 3e cf 97 4a 3e 11 fb db 3d
       0.059457168 0.17265944 0.19784473 0.107412465
0001f0 e2 75 9b 3d f9 f7 0c 3e 28 d6 ad 3d 56 49 e5 3d
       0.07590844 0.13766469 0.08488113 0.11195628
000200 40 1b 25 bb 97 2f e1 3c a3 ee 04 bd 55 f1 ab bd
       -0.0025193244 0.027488513 -0.032454144 -0.0839564
000210 87 ac ea 3d 00 e0 69 be cb df d6 bc 65 e5 07 be
       0.11458688 -0.22839355 -0.02622976 -0.13271101
000220 29 44 4f bd 26 4f 53 3b 45 64 d7 bd e4 b0 b1 3c
       -0.050602112 0.003224322 -0.10517172 0.021690793
000230 93 5d db 3d 77 07 44 3d 14 c1 0a 3d e1 05 78 3c
       0.10711207 0.04785868 0.03387554 0.01513812
000240 0f 3d 8a bd 26 81 18 be 12 c7 7b bc e7 a3 60 bd
       -0.06749927 -0.14893016 -0.015367286 -0.05484381
000250 08 a2 ba 3d f7 61 d1 3d f7 7d d5 3d 1d dc cf 3d
       0.09112936 0.102237634 0.104244165 0.10149405
000260 28 8b a8 bd fb 10 d8 bc f4 b9 a3 bd ab e2 06 be
       -0.08229667 -0.026375284 -0.07994452 -0.13172404
000270 c3 4a 8b bc 71 c2 f1 bb 31 04 76 3d cb 9a 41 3b
       -0.017003423 -0.0073779156 0.06006259 0.0029541727
000280 51 6d 4c be f1 c2 d4 3c f1 af 5b 3d 1f 2a 56 3b
       -0.19963576 0.025971862 0.053634588 0.0032678915
000290 e1 4e 70 bd 52 a4 8c be 75 3e 51 3e 72 1e 2a 3e
       -0.058668975 -0.27469116 0.20433982 0.16613176
0002a0 e2 94 ec bc 00 69 38 3d f1 39 b3 3c 75 15 fd 3d
       -0.028879587 0.04502201 0.021878215 0.12357608
0002b0 b9 ef 91 3c da 51 d8 3c dc 97 3b bd 28 f3 2e 3d
       0.017814504 0.026406217 -0.04579912 0.04271236
0002c0 3e 25 a5 3d 6a 3d e6 3d e3 dc 89 3d 98 4d 14 bb
       0.08063744 0.112421826 0.06731584 -0.0022629257
0002d0 38 5b 01 3e 0e 38 84 3d c7 a7 a5 3e 94 c9 3d be
       0.12632453 0.06456004 0.32354566 -0.18533927
0002e0 1b fc d3 bd 75 76 0b be 65 3e 5e be d3 3c 85 3e
       -0.1035082 -0.13619407 -0.21703489 0.26022968
0002f0 53 f7 85 bd e8 14 7b bd f8 37 31 3c c2 f9 7b bd
       -0.06541314 -0.061299235 0.010816567 -0.061517484
000300 a7 22 6a 3d 5c 05 f2 bd a6 74 81 3c 77 9a f4 bc
       0.057161953 -0.118174285 0.015802693 -0.02985881
000310 c8 df 71 be 3c f8 62 be de c8 2a be 1d c4 ff bc
       -0.23620522 -0.22165006 -0.16678187 -0.031221444
000320 80 17 65 3d fc db ac be ad e9 59 3e d5 a3 37 3d
       0.055930614 -0.33761585 0.21280546 0.044833977
000330 0a 9d 00 be cd 14 7a bd fe f6 e2 be 6a f0 41 3e
       -0.12559906 -0.061054993 -0.44329065 0.18939367
000340 7a f6 ae bc 29 6e 3e be 40 b5 04 bd 4c 57 5f bd
       -0.021357764 -0.1859671 -0.032399416 -0.054526612
000350 f1 39 89 bd 18 cc 99 bd a9 e9 01 3d af 8f 75 bd
       -0.067005046 -0.07509631 0.031716976 -0.05995148
000360 be 64 21 3d 76 c7 1f 3d 4b 14 94 bd 52 5a 80 bc
       0.039402716 0.03900858 -0.07230433 -0.015668068
000370 3d 24 b8 bc ea fd cb 3e 41 a8 55 be 23 23 7e bd
       -0.022478217 0.3984216 -0.20864965 -0.062045228
000380 d0 57 04 bc 14 55 f2 3c 58 e7 24 3d f7 4d d7 bd
       -0.008077577 0.029581584 0.04025969 -0.105129175
000390 07 aa 3d 3d 50 b5 c4 3d 78 7c 31 bd 6e 10 8a bc
       0.04630473 0.09604895 -0.043331593 -0.016853537
0003a0 0c e9 6f 3d fe ec df 3d f4 94 10 3e 09 51 a3 bc
       0.05857186 0.109338745 0.14119321 -0.019936102
0003b0 a1 88 8f 3d 3c a6 3c bd bf 3c 25 be e0 9b 9b 3d
       0.07008482 -0.04605697 -0.16136454 0.0759809
0003c0 da 42 1d bd d2 1d 93 bd b9 3a fc 3d c5 24 17 3e
       -0.038393833 -0.07183422 0.12315888 0.1476012
0003d0 6f 32 d1 bd 75 c9 11 be 2d 2a 25 be 1c 4c b1 3e
       -0.102146976 -0.14237006 -0.1612937 0.3462838
0003e0 ec ec 77 3e 59 0c 08 be 49 76 cd 3d 69 ce fd 3c
       0.24211472 -0.1328596 0.10032327 0.030982213
0003f0 ca db fa 3b 44 3f 5b bd a9 51 06 be fa 08 39 3d
       0.0076555954 -0.05352713 -0.13117088 0.045174576

layers.5.bias f4 [120]
000000 fc a0 18 3e 15 38 86 bd 36 34 0a 3d f5 d3 10 bb
       0.1490516 -0.065536655 0.0337412 -0.0022098992
000010 68 26 d9 3c ff 9f 67 bd d3 a0 25 3e 56 72 32 3d
       0.026507571 -0.05654907 0.16174631 0.04356607
000020 07 1e 5d bd 5f 87 e0 bc 76 1e 9c bd e8 b7 89 bd
       -0.053983714 -0.0274083 -0.076229975 -0.067245305
000030 3e 3d 07 bd d4 96 2e 3d 66 d1 57 bd 0a cb 15 3d
       -0.03301739 0.04262431 -0.052689932 0.036570586
000040 59 55 85 3d a1 dc 62 bd 01 f5 8e 3c 34 c7 a6 3c
       0.065104194 -0.05538619 0.017450811 0.02035866
000050 3e e0 0b bd 4c e7 45 bd 20 e5 02 3e 35 fc a4 3d
       -0.0341494 -0.048316285 0.12782717 0.08055917
000060 18 55 94 bd 97 8d 8b 3d 7f 82 ff 3c 9c 44 15 3e
       -0.07242793 0.068141155 0.031190155 0.14576954
000070 98 47 af bd 5e 73 be bd f3 a1 32 3e 25 15 b1 bb
       -0.08558577 -0.09299348 0.17444591 -0.005404132
000080 eb 28 e8 3b d8 7f 91 bd a4 2b 02 3d 50 71 0d be
       0.007084956 -0.071044624 0.0317799 -0.13812757
000090 67 78 be 3d 1f 2f 13 3e 48 85 af bc 43 ab ca bd
       0.09300309 0.14373444 -0.021425858 -0.09895947
0000a0 9d 07 74 bc ec f0 8c bd 5f 68 16 3e 13 20 6d 3d
       -0.014894393 -0.0688189 0.14688252 0.057891916
0000b0 b1 cf 90 bd da 25 98 bc d8 5c 6f 3c df 04 3d bd
       -0.07070864 -0.018572737 0.014609538 -0.046147224
0000c0 f6 d5 18 bd da 50 56 bd 27 99 73 bd 07 21 c1 3d
       -0.037313424 -0.0523232 -0.05947223 0.094301276
0000d0 10 18 37 3b 8c 20 9e 3d 24 1d 93 3d 5b 40 71 3d
       0.0027937926 0.077210516 0.071832925 0.058899265
0000e0 6d c7 c9 bd f2 0e 21 bd 74 b2 88 bc 45 08 1c 3d
       -0.098524906 -0.039320894 -0.016686656 0.038093824
0000f0 e0 5f 98 3d a7 60 7a 3d 76 da 94 bd 4f 8e eb bd
       0.07440162 0.06112733 -0.072682306 -0.115017526
000100 15 79 ab 3d de c5 1d be 71 f1 b9 3d d2 d3 ae bd
       0.08372704 -0.15407512 0.090792544 -0.08536495
000110 45 8e c1 3b 8b e6 f0 bb 18 ad e5 3b 81 52 77 bd
       0.0059068524 -0.0073517016 0.00700916 -0.060381416
000120 de a1 e9 bd a9 75 67 bd 24 87 95 3d 2f 89 8d bd
       -0.11407827 -0.056508694 0.07301167 -0.06910931
000130 53 72 eb bd 42 38 eb bc 54 95 8d bd 9f 3c 08 bd
       -0.11496415 -0.02871335 -0.06913248 -0.033260938
000140 33 f1 ce bd 4f 7a a6 bd e5 1a 63 bd 3d 24 d6 3d
       -0.10104599 -0.08128797 -0.05544557 0.10456131
000150 b2 08 aa bd bb cb 9e bd 53 31 da 3c cb 7d f7 3d
       -0.0830244 -0.07753702 0.026634848 0.1208454
000160 a2 4f 43 bd 00 5b d0 3c d3 98 9e 3d cd a7 3d 3d
       -0.047683366 0.025434017 0.07743993 0.046302605
000170 20 2c 95 3c d2 6d 7b 3c e0 7f c5 3d 82 13 ef bd
       0.018209517 0.015346007 0.09643531 -0.11673643
000180 51 4b 47 3d 47 23 5b be ec 22 88 bd dd 38 36 bd
       0.04865581 -0.21400176 -0.06647286 -0.044487823
000190 5a 8e 5c 3d e1 e4 a6 bb 07 ec 90 3d b8 f5 96 bd
       0.053846695 -0.0050932025 0.07076269 -0.07371086
0001a0 fb d7 56 bd 7a e8 6e bd ad 0d 89 bd 4b 11 11 be
       -0.05245207 -0.058327176 -0.066920616 -0.14166753
0001b0 b1 b0 16 3c e6 56 99 bd e1 ed 21 3d 1d 55 03 bd
       0.0091974 -0.07487278 0.0395335 -0.032063592
0001c0 90 ca f1 bd 58 2b bb 3d 93 8d f1 3a 3d 1f d3 bc
       -0.11806214 0.091391265 0.0018429033 -0.025771732
0001d0 fd 9a e0 bd 5b af f2 bd 2f a7 7a bd cf 39 80 bd
       -0.10967062 -0.11849853 -0.061194595 -0.06261026

layers.6.weight f4 [10, 120]
000000 9a ea a3 3c 1f 75 98 bd 7c d5 c0 3d 62 ab a8 bd
       0.020009328 -0.07444214 0.09415719 -0.08235814
000010 64 1b dc 3c a3 7c 03 3d 12 f9 7e 3e b5 f1 cf bd
       0.02686853 0.032101285 0.248997 -0.10153524
000020 57 8b a2 bd 67 09 b8 bd a1 7c 5f bc 2d 50 aa bd
       -0.07936733 -0.08986168 -0.013640554 -0.083160736
000030 4a 9e 3e 3d 99 70 cc 3d d0 f0 3f 3e e1 60 b1 bd
       0.046537675 0.09982414 0.18744206 -0.08661056
000040 52 29 da 3d 5c 55 a3 bd 2d 5b ca bd 00 e8 50 3c
       0.106524125 -0.079752654 -0.09880672 0.012750626
000050 ec 81 44 3e 3e 39 f7 3d 95 e4 37 3d d4 cb 5e 3d
       0.19190186 0.12071465 0.044895727 0.054393604
000060 32 d8 86 3c 11 c7 06 3e 41 5c 9d 3c b7 39 c1 3d
       0.016460512 0.13161875 0.01920903 0.09434836
000070 b4 ec a3 be 10 4a d4 bd 2e 2d 6b bd 85 e9 b8 3d
       -0.32016528 -0.10365689 -0.057416134 0.09028915
000080 33 b1 5c bd a7 70 72 bb 63 4b 02 3e e0 02 01 3e
       -0.053879928 -0.0036993416 0.1272407 0.12598753
000090 07 a9 85 be 4e f6 33 be 90 77 88 bd e4 6d 04 3e
       -0.2610552 -0.17574427 -0.0666343 0.12932545
0000a0 68 2e b1 bd 93 f4 0b 3e db 99 d0 3d 9f 3b cd bd
       -0.086514294 0.13667516 0.101855956 -0.100211374
0000b0 01 06 24 3e bd 47 77 3c 2b b5 93 3d d4 3e 22 be
       0.16017915 0.015092787 0.072122894 -0.1584428
0000c0 1a 54 71 bd 34 29 6b be 02 4f fd 3d a0 e4 32 3e
       -0.058918096 -0.22964936 0.12368585 0.17470026
0000d0 e5 14 18 3e c2 db ef bc 6f 2d f0 3d 9a 8b 63 3d
       0.1485172 -0.029279593 0.11727416 0.055553056
0000e0 03 6d 73 bd 31 78 a6 3d 46 a0 b5 be 59 11 39 bd
       -0.059430134 0.081283934 -0.3547384 -0.04518256
0000f0 0d 3f c6 3d 5a b1 13 bd aa 3c 15 be 48 0d 9c bc
       0.09679995 -0.036057808 -0.14573923 -0.019049302
000100 21 ca fb 3d c8 93 52 3d cf 29 9e 3d b8 b4 55 be
       0.122944124 0.051410466 0.07722818 -0.2086972
000110 08 3f af 3d b8 2c 3b be 23 76 ff bd 44 c4 39 3e
       0.08556944 -0.18278778 -0.12473705 0.18141276
000120 7e 70 22 be 29 c2 44 be 3e 90 4e 3d 88 ae 5a bd
       -0.15863225 -0.19214691 0.05043053 -0.053389102
000130 74 60 9f 3c 74 30 b4 bb 20 de 15 3e fb 2f 62 3d
       0.019455172 -0.00549894 0.14635515 0.05522154
000140 5a 59 08 be c7 b0 98 bc 3f 9f 63 3d 9f 40 1b be
       -0.13315335 -0.018638982 0.05557179 -0.1516137
000150 c7 51 47 3e 0d 22 40 3e 6e 78 0a 3e c8 c4 c2 3c
       0.1946479 0.1876299 0.13522503 0.023775473
000160 99 65 18 3e 91 ae 20 3e a3 14 42 be 2e ed 37 3e
       0.14882506 0.15691592 -0.18953185 0.1796157
000170 8c 67 8e 3e 81 13 61 3d 8a ed 01 be 3e 69 f0 3c
       0.27813375 0.05495024 -0.1268827 0.029347058
000180 cb c7 fd 3d 71 6d b5 3d e0 03 9d 3d 81 b9 a0 bd
       0.12391623 0.08858765 0.07666755 -0.07847882
000190 e8 4a 8a bd 35 93 86 3d 89 52 8a bb 1f 74 17 3d
       -0.067525685 0.06571046 -0.0042212647 0.036975976
0001a0 f8 54 07 be 07 2a aa 3d 2b 56 bc bb ec c8 e2 3d
       -0.13216007 0.08308797 -0.0057475767 0.11073479
0001b0 ae 7c 23 be ed d3 d3 bd 77 d1 10 3e 84 50 2a 3d
       -0.1596553 -0.10343156 0.14142404 0.041580692
0001c0 b1 fd 3f 3c 10 f2 4a be 7f bd 24 3e ec b6 01 3d
       0.0117182 -0.19818902 0.16087912 0.03166859
0001d0 ff 31 b5 bd 7e 62 67 bd 49 dc 58 bc 07 4a 42 be
       -0.088474266 -0.056490414 -0.013236114 -0.18973552
0001e0 bc 6e f3 bd bb b7 8d 3d 0e a5 64 be e1 16 4b be
       -0.11886355 0.069198094 -0.22328588 -0.19832946
0001f0 9a 66 bc bd d4 cb 15 3e e7 cc 83 bc d0 22 23 be
       -0.09199257 0.14628536 -0.016088916 -0.15931249
000200 8e 3c a2 bd 85 f7 8b be 9c d3 8b 3d 51 5a 11 be
       -0.07921706 -0.2733728 0.06827471 -0.14194609
000210 e8 e3 85 3d 70 12 02 be 03 51 23 3d a7 3a 07 3d
       0.0653761 -0.12702346 0.03987218 0.03301492
000220 fc 83 09 bd 4d 13 2a be ed e4 21 3e 7d f3 37 bd
       -0.033573136 -0.16608925 0.15809985 -0.044909943
000230 45 27 56 bd b1 3a 35 be 0f 48 43 3e 90 1f 82 bc
       -0.052283544 -0.1769817 0.19070457 -0.01588419
000240 a2 42 2e be 61 b0 46 bd a0 15 30 3e a3 b8 25 bc
       -0.17017606 -0.04850805 0.1719575 -0.010114822
000250 87 b1 c4 3b a6 fe b4 be bd 7d a4 bd 22 36 f1 3d
       0.006002608 -0.3535053 -0.08031795 0.11777903
000260 30 86 51 be bf 44 3f 3e 39 92 8e 3d 09 b7 96 3d
       -0.20461345 0.18678568 0.069614835 0.0735913
000270 68 d6 a5 bd 18 ca 49 3d 91 c2 35 bb 70 c3 c1 3d
       -0.08097535 0.049264997 -0.0027734379 0.09461105
000280 bd 64 a6 be 9e a1 71 3d 27 ab 0f 3e 34 a8 2b be
       -0.32498732 0.05899202 0.14030133 -0.16763383
000290 d0 43 5c 3d 15 ba ec bd ba 5c 62 3e af 4d 81 3e
       0.05377561 -0.1155893 0.22105685 0.2525458
0002a0 30 f6 1b 3e ef f5 17 bc 12 cd 3a 3e 89 d1 df bd
       0.15230632 -0.009274944 0.1824229 -0.109286375
0002b0 4d 60 88 be 87 a8 c3 bd a2 d6 5e be 54 09 3f be
       -0.26635972 -0.095536284 -0.21761563 -0.18655902
0002c0 01 07 3f 3e d5 f5 d6 be b1 29 3e 3e 6c a2 89 3d
       0.18655016 -0.4198443 0.18570592 0.06720433
0002d0 5f 77 17 be a8 de 00 bc c3 8a 36 be 77 f5 bf bd
       -0.1479163 -0.007865585 -0.17826371 -0.093729906
0002e0 36 17 f8 bd 71 d1 db 3d 9c ef 95 be 78 f9 d1 bd
       -0.12113802 0.10733307 -0.2928437 -0.102526605
0002f0 cd ec a6 bd 2b 44 e0 3d 2b 29 17 3d 3d f7 6c bd
       -0.08150635 0.10950502 0.036904495 -0.057852972
000300 20 9c ff 3d 74 4f 95 bd 82 d3 f3 bd e9 f4 15 be
       0.1248095 -0.07290545 -0.11905576 -0.14644207
000310 20 34 42 3e 82 ca 99 3e ea 8a 99 3d e4 09 78 3b
       0.18965197 0.30037314 0.07497199 0.0037847692
000320 52 c8 57 3e 13 1a a5 be cf 6c bc 3d f4 c0 43 be
       0.2107251 -0.32246456 0.09200441 -0.19116575
000330 7a 13 eb 3d 6f 20 12 3e ae fc 54 be d2 ed 28 3d
       0.11478324 0.14270185 -0.20799515 0.041242428
000340 9c b6 e0 bd b4 a4 7f 3d 94 44 b4 bc 26 e9 f3 be
       -0.1097233 0.062412933 -0.022005357 -0.47638816
000350 b3 35 75 be 91 9a e5 bd 35 b6 77 bd 6e 60 86 bd
       -0.23946266 -0.11211122 -0.0604765 -0.06561361
000360 54 fa 62 be e2 da fd 3d 06 91 10 3d 9b d4 80 be
       -0.22165805 0.12395264 0.035294555 -0.25162205
000370 8e ac 31 bd 2c 16 96 be fe eb 66 be 9d fa e6 bd
       -0.04337745 -0.2931379 -0.22550961 -0.112782694
000380 48 a1 10 3e cf cf 57 3e 30 0f fc 3a 39 72 57 3e
       0.14124024 0.21075366 0.00192306 0.21039666
000390 e1 54 cd bd 5c 7a 24 3e b0 72 58 be b1 13 94 be
       -0.10025955 0.16062301 -0.211375 -0.28921273
0003a0 f1 47 a8 3e 31 ab dc 3c 14 a0 94 be 7e db d3 3c
       0.32867387 0.0269371 -0.2902838 0.025861498
0003b0 67 e1 a8 3c 6a 8a bc 3e aa b7 ce 3c b7 f1 6a bd
       0.020615293 0.36824352 0.025234062 -0.057359423
0003c0 71 d2 f0 bd 89 0c 8f 3d 46 6a bd 3d 85 32 21 be
       -0.117588885 0.06984813 0.09248786 -0.15741928
0003d0 75 27 33 be 69 bd 9a 3d e5 4f a2 3d 49 62 1e be
       -0.1749552 0.07555658 0.07925395 -0.1546718
0003e0 ab 4e bd bd c2 8e 9d bc 20 2f 47 3e a7 36 68 bd
       -0.0924352 -0.019233111 0.1945157 -0.056692746
0003f0 ab 43 5e be 38 53 bf 3d 6f f3 48 3e d5 c8 88 3d
       -0.21705501 0.093420446 0.19624113 0.06678931

layers.6.bias f4 [10]
000000 7a d8 c9 3d 58 2a be bc b4 05 b7 3d ae eb 93 3d
       0.09855743 -0.02321355 0.08936635 0.07222687
000010 d7 e5 0e bd 34 df 29 3d 83 a2 96 bd c9 34 99 3c
       -0.03488716 0.04147263 -0.073552154 0.018701928
000020 23 89 ce 3d d9 4d d3 bc
       0.100847505 -0.025793957
