image-classification/CIFAR10/trained_models/cifar10_net.pth (torch, 84080 bytes, 4 tensors)

conv1.weight f4 [9, 3, 3, 3]
00000000: bef1 64be c111 d13e 4c82 90be 1466 e5bd
00000010: 35c3 cc3e 6160 5ebe e14f f4bc bd61 553e
00000020: bc04 50be 7204 bebe ca62 773e 4397 03be
00000030: 0b56 23be e536 fc3e 4c97 6ebd 63a1 72be
00000040: afbe b23e ebd4 c6be a303 89be 4459 a03e
00000050: 3a67 19bd fd61 47bd 41fd 703e 7957 3ebe
00000060: 0d6b 193b c2b9 353e e8ac fbbd 6fae 973d
00000070: f850 8dbe aa83 44be 9ddf 393e afdc 51bd
00000080: c317 17be 03a4 563e c76c 423d b1d9 0dbe
00000090: 8584 a93e a012 a8bd c7ed 18bd 6c5a 763e
000000a0: 0c0a 9dbc 01e3 82be 1f52 863e eda7 e93d
000000b0: 6b6f 23be 776f a93d ed5f 8abd 1b37 3dbe
000000c0: e92d d43d 62eb 3e3d e078 bebc 439c fd3d
000000d0: 745b 7fbd 256e d8bd ea7e e939 7461 463d
000000e0: 3305 773d 30c0 acbd 31de 893d bb30 b03e
000000f0: 0c72 113e 9165 40be 3001 6f3e fee9 6cbd
00000100: 8b86 a03e eaef 8bbd 0bf7 efbd bc76 9fbe
00000110: 2221 723e f532 eb3d 0a7f afbe 51e0 983d
00000120: 1ff0 91be 98ea 983e bd0d 6a3e 31ea a4be
00000130: 2276 b4be 76e8 a53e fd5c 053e 4c11 b8be
00000140: 9435 93bd e8dd 04be 1e35 4ebd e80f 8a3e
00000150: 6437 92be 51e5 30be 1761 cd3d 0669 8d3d
00000160: 13a2 4ebe b7c0 99bd 541d ebbc 79a6 f53d
00000170: dcad 25bd 9083 f73d 70cb b33c 35e0 513d
00000180: 2f6b efbd 73e3 2bbd 585b c8bc 717b 463e
00000190: 6d3b 3f3d abf0 88be c770 8c3e 7548 113e
000001a0: c5c1 a4bd 571f bb3d 8eea ad3e eae9 263e
000001b0: 72f6 0f3d e830 fb3d e3a3 85be 92e6 493e
000001c0: 3f7f 0abc 9499 b13e 3dff 7cbe 5929 8cbe
000001d0: fb53 f5be 3d8d 5a3d 887b bf3d 2933 98be
000001e0: be6f 153d 8703 623e 3268 273f 708c 1abb
000001f0: 05a3 013d 2816 b03d 14a1 3cbe 24c1 43bd
00000200: 5a09 50be 3eaf 42bd 210f 763e ffdd cc3e
00000210: 8e6a 03be 17d6 49be 7299 a0be 91fc 8b3e
00000220: ad00 abbe 21e0 4a3e 8a71 97be c92f cfbd
00000230: 0903 fe3d 8107 1cbd 03b3 f63d d16f 1b3d
00000240: 20e5 593e 3fb0 3fbe ba5a 653e 047b 88be
00000250: a0cc 36be 1ed6 6c3e 810f 143d 56d9 993e
00000260: 425a 423e 701d 5dbe 4200 8cbe 9d35 db3c
00000270: b42e c9be c6c8 a73d bc19 993e 09e9 48be
00000280: 4d3c 933d 556e 0b3e a52f 8fbd baad b3be
00000290: 58a0 ca3e 8cea 70be 0747 243e f0f2 073d
000002a0: 2b18 6d3e ea77 933e c864 00bf 5ffd 453c
000002b0: b086 5ebe eb47 ba3e ac09 21be ec35 aabd
000002c0: f404 4f3e 40b0 353e f735 633e 114a cfbe
000002d0: 919c 7bbe 64fd 4abd 4408 0d3e 8e7b 253c
000002e0: 0bca bdbd a106 0c3e 0ded 993e 03c8 d43d
000002f0: e357 e6be 2fc3 fd3e 4016 e83d ca36 febc
00000300: 4bab 5f3e 2d43 2abe 139a 83be 0767 733d
00000310: 01ad 22be 82bf 15be c0cb 45be 2b9c 7bbe
00000320: e686 a93c 2710 63be 5b19 e13c 4b66 1b3e
00000330: 104c 94bd 3444 75bd 8e74 abbd 71a5 7bbe
00000340: 3b3d bcbd 0f9a 10be 536b 2dbe 394e 10bd
00000350: ab0e 8a3d 65b0 a8bc 5e43 0b3d 9141 a03e
00000360: 62a3 a5be 5f11 adbe 700f e4bd b778 edbc
00000370: 9021 073e 32f6 d13e 0936 573e 3e75 913e
00000380: 5bf5 bd3e a88e 3dbe 2220 50be ec9f 39be
00000390: 0fde 8fbd d8d2 033b 3d97 903e e34e 073e
000003a0: 1e9b 50bd a9d7 95bc 7a15 8bbd 6ccf dc3d
000003b0: bf89 c4bd 111a 3f3e 45ad cf3d 1664 9dbd
000003c0: 680a 643d c935 cfbd 8cc5 08be
-0.22357842 0.40833858 -0.2822441 -0.112011105 0.3999268 -0.21716453 -0.029823245 0.20838065
-0.20314306 -0.37112767 0.24158779 -0.1285067 -0.15950792 0.4926063 -0.058249757 -0.23694377
0.34911105 -0.3883432 -0.26760587 0.31318104 -0.03745196 -0.048677433 0.23534109 -0.18588056
0.0023409755 0.17746642 -0.122888386 0.074063174 -0.27600837 -0.19190851 0.18151708 -0.05123585
-0.14755158 0.20961003 0.04746702 -0.13852574 0.33108917 -0.082066774 -0.037336137 0.2405793
-0.01916983 -0.25563815 0.26234528 0.114089824 -0.15960471 0.08273213 -0.06756578 -0.18478052
0.10360319 0.046611197 -0.023250997 0.1238332 -0.062343076 -0.105678834 0.00044535781 0.048432782
0.060307693 -0.08435094 0.06731833 0.34412178 0.14203662 -0.18788745 0.23340297 -0.05784034
0.31352648 -0.06832869 -0.117170416 -0.31145275 0.23645452 0.11484329 -0.3427661 0.0746466
-0.2850351 0.2986648 0.22856803 -0.32209924 -0.35246378 0.32403916 0.13023753 -0.35950696
-0.071879536 -0.12975276 -0.050343625 0.2696526 -0.28557885 -0.17274977 0.10028284 0.06904797
-0.20179014 -0.075074606 -0.028700508 0.11994643 -0.04044901 0.120856404 0.021947592 0.05123921
-0.116903655 -0.04196496 -0.024457619 0.19383027 0.046687532 -0.26746115 0.27429792 0.14187796
-0.08044771 0.09136837 0.33968014 0.16300169 0.035147138 0.122651875 -0.26101598 0.19716862
-0.008453189 0.34687483 -0.2470674 -0.27375296 -0.47915635 0.05335735 0.093497336 -0.29726532
0.03648352 0.22071658 0.65393364 -0.0023582242 0.03164961 0.08597976 -0.18420821 -0.047791615
-0.20316067 -0.047530405 0.24029209 0.4001312 -0.12833616 -0.19710575 -0.3136707 0.2734113
-0.33398953 0.19812061 -0.2957881 -0.10116536 0.12402923 -0.038093094 0.120458625 0.037948433
0.2127881 -0.18719576 0.2239789 -0.26656353 -0.17851496 0.23128554 0.0361476 0.30048627
0.18979743 -0.21593261 -0.27343947 0.026758963 -0.39293444 0.08192591 0.29902446 -0.19620146
0.07189236 0.13616307 -0.06991509 -0.3509348 0.39575458 -0.23526973 0.1604272 0.033190668
0.2315375 0.28802425 -0.5015378 0.012084334 -0.21731067 0.36382994 -0.15726346 -0.08311066
0.20216733 0.17743015 0.22188555 -0.40486196 -0.24571444 -0.04955806 0.13772684 0.0101002585
-0.09267052 0.13674404 0.30063668 0.10389712 -0.44988927 0.49562976 0.11332369 -0.031031985
0.21842687 -0.16627188 -0.25703487 0.059424426 -0.15886308 -0.14623836 -0.19316006 -0.24571292
0.020694207 -0.2217413 0.02747791 0.1517574 -0.0724107 -0.059879497 -0.083718404 -0.2457483
-0.09191366 -0.14121269 -0.16935472 -0.03523085 0.06741079 -0.020591924 0.033999793 0.31300023
-0.32351214 -0.33802316 -0.11135757 -0.028988225 0.13196397 0.41008145 0.21016707 0.2840976
0.37101254 -0.1851145 -0.20324758 -0.18127412 -0.07024776 0.0020114686 0.28240386 0.13213687
-0.05092918 -0.018291311 -0.06791206 0.1078175 -0.095965855 0.18662287 0.101404704 -0.076851055
0.055673987 -0.101176806 -0.13356608

conv1.bias f4 [9]
00000000: f0e5 36be 6509 3ebe c625 73be c746 3d3d
00000010: 1642 43be 333d fdbd f6fd 5bbe 4b1a 2ebe
00000020: 5271 53be
-0.17861152 -0.18558271 -0.23744878 0.046210077 -0.19068179 -0.123651884 -0.21483597 -0.17002217
-0.20648697

linear.weight f4 [10, 2025]
00000000: 8de7 cabe 8f67 b6bd b5be 30bf da7d abbe
00000010: 407a 93be 8bad a93b f7c9 2a3e 7e8c 35be
00000020: 3a45 433e 0918 44be bcd8 ce3b 5c19 5f3e
00000030: d52a 0abe 9ed9 aebd ffad 20bf e3ea da3d
00000040: 6620 4c3e b77d 313e 738b 733e dbff ebbd
00000050: 4e91 a3bd 242f 3f3e b5dc f8bd 0de2 f33c
00000060: a1d9 873e 586a 773e 5044 e33e 1379 3dbe
00000070: 5308 ca3d 1c46 55be be62 ec3d 38d2 293e
00000080: 351d b43b 50d0 1fbf 5676 79be 717f 88bc
00000090: 0ae7 b2bd a29a 723e d083 c0bc cf00 f23d
000000a0: 81d2 89bc 43ad a8bb 7013 d23e 7495 a33e
000000b0: f4f9 aa3e 19d7 e23d 2be4 95be d9eb 10be
000000c0: b666 c0bd 3eeb 703d 9549 a5bd b505 f7bd
000000d0: 499b 95be 32f4 7dbd b7ab c8be 2f21 a8be
000000e0: 2031 d1bd 21b0 06be 524a 093e cdaf 643c
000000f0: b96c fe3d 638d ebbd 476f 32be dfb5 8fbe
00000100: 0bd9 823d b5ff 16be a5ab cebe cdfc 1dbd
00000110: ef53 a73d b563 c4bd 0d5f ff3d f042 663c
00000120: 6914 7a3e abb8 483d b6a5 f53d 706a 6b3d
00000130: 4faa 0e3e deba 68bd c950 0cbe b888 f0be
00000140: 981a 4bbc d830 c1bd 4a66 1ebd c82a afbe
00000150: f5c8 3bbe 75c6 553d 5e06 e93b 7e54 693d
00000160: 4797 2abe 30e5 cb3c bec7 a13d dc27 b7bd
00000170: 49dc 95be 15a4 0cbe a2f9 ed3c 69fa f1bc
00000180: 9e10 d4bd f901 88bd b384 eb3c 5670 dc3d
00000190: fd73 5abe aef3 43be aa06 953d 0c0b 7c3e
000001a0: 29ca 84be 73d7 82be 49bf e5be 2688 cdbd
000001b0: 82d9 0d3e c261 03be 4a00 10be 7df5 bbbd
000001c0: f948 b2bc 46cc 59be 0176 8bbe c617 2bbe
000001d0: 3f92 79be 8b41 63be 6d48 c9be 9fe9 bfbd
000001e0: 08c1 01be 9691 d63c 0dce a0bd e1a7 40be
000001f0: 2ecd 5dbd 7dfa 7cbd 0d07 013e 3251 153e
00000200: 7d66 ca3e 58cf f93b be88 133e 631e 97bd
00000210: 5a75 bc3b b0e8 883e 926f 3cbe 3d89 cdbe
00000220: dc70 c0bd f633 513d d751 993e fdac 563e
00000230: dbc3 04be d91a 0bbe 9c07 edbd 74ef 213d
00000240: 2ddf be3d 9c35 8dbe db85 19bd e72e 25be
00000250: bf4e e1bd 679b 9e3e 962d f73e 1adc 50be
00000260: cd65 123d 525f 193e 44d9 27bd 2885 073e
00000270: c26f 50be aa96 bc3d 312e b1bd f52b f8bd
00000280: 9fc7 c5bd 9eb5 b73d 46d9 8e3c df2e 173d
00000290: 3cb2 15be 4fa5 14be 2af8 9a3e d4aa ce3d
000002a0: 458e 7dbd 248b cebd 96ba 79be 4417 a23d
000002b0: 5ee9 5a3e f84f 84be ca5b 643d 5aee ddbd
000002c0: 6e7a 403d 6b1b 9dbd 1617 be3d b59c 5d3e
000002d0: 2d74 a5bc 660b 37be 0647 463e 6a52 bc3e
000002e0: 8ff8 a1be e35e 5a3e 56da 4bbe acf3 b93c
000002f0: 8028 e3bd 67cf 053e 9e8b be3d 0866 22bf
00000300: af98 80bd fce2 adbe 80bf 283e aa3a 133f
00000310: 5732 233e d734 06be 2b78 923d fefd 8d3d
00000320: a632 4b3d 4d7c b43e 6c54 993e 8045 403e
00000330: de35 673e 37e0 933e 2616 553e 4f99 7e3a
00000340: abbf 9cbd f11f 31be da8b 16be 3480 223d
00000350: 0965 31be 451a b3be b8cf 243e 569c 12be
00000360: 39ca 9f3d 0cff d83e ca7b 533e 5efc 99bd
00000370: 85d0 693d 5534 bb3c d9cc 8ebe b470 90bd
00000380: be6f b5be a865 df3b faaa b2bd cc30 03be
00000390: 0179 92be fce1 1e3e 2f9c 2a3d 62fe 23bf
000003a0: 4db7 3dbe 5419 81be 7517 48be 014f 58be
000003b0: 0d3c b2be 1c2c c1be 425f cc3e adf6 a1be
000003c0: 79c5 0abd 7198 783c 53a0 213d 7ff1 843e
000003d0: e52d b53d 541d 263e 8aca 553e a2f8 e83d
000003e0: d72f 973d 6445 143e d2ca 42be eece 563e
000003f0: d99c c7be fb1b dc3d a927 66bc a27a 113e
-0.39629784 -0.08906471 -0.69040996 -0.33494455 -0.28804207 0.0051781586 0.16678606 -0.17729375
0.19069377 -0.19149794 0.006312458 0.21787018 -0.13492902 -0.08537601 -0.62765497 0.10689332
0.19934234 0.17333113 0.23783664 -0.1152341 -0.07986699 0.18670326 -0.121514715 0.029770875
0.26533225 0.2416166 0.44388056 -0.18503217 0.09864869 -0.20827526 0.11542271 0.16584098
0.005496646 -0.62427235 -0.24361548 -0.016662331 -0.087354735 0.236918 -0.023500353 0.118165605
-0.016824009 -0.0051476075 0.41030455 0.3194996 0.33393824 0.11076183 -0.2927564 -0.14152469
-0.093945906 0.058818094 -0.08070675 -0.120616354 -0.29220036 -0.06200046 -0.39193508 -0.32837817
-0.10214448 -0.13153125 0.13407257 0.01395793 0.12423081 -0.11501577 -0.17425261 -0.28068444
0.06389054 -0.14745982 -0.4036533 -0.038571168 0.08170306 -0.0958933 0.124693014 0.014054045
0.24421848 0.049004238 0.119944975 0.057474554 0.13932155 -0.056818835 -0.13702692 -0.46979308
-0.012396477 -0.09433144 -0.03867177 -0.34212327 -0.18338378 0.052191216 0.0071113547 0.056965344
-0.1665927 0.024889559 0.07899426 -0.089431494 -0.29269627 -0.13734467 0.029049698 -0.02953835
-0.10354732 -0.06641001 0.0287498 0.10763614 -0.21333309 -0.19135925 0.07276662 0.24613589
-0.25935486 -0.25555 -0.44872501 -0.10035734 0.13852504 -0.1283026 -0.1406261 -0.091776825
-0.021763312 -0.2126933 -0.27238467 -0.16708288 -0.24372195 -0.22192971 -0.3931307 -0.093707316
-0.12671292 0.026192468 -0.07851801 -0.1881404 -0.054150753 -0.06176232 0.12600346 0.14581755
0.39531317 0.0076235943 0.14407632 -0.07378843 0.005751294 0.26740026 -0.18401936 -0.40143767
-0.09396526 0.051074944 0.2994525 0.20964427 -0.12965338 -0.1358446 -0.11573717 0.039535
0.09319911 -0.27579963 -0.03748117 -0.16131173 -0.11001348 0.30977938 0.48276967 -0.20396462
0.035741616 0.14977768 -0.040978685 0.13234389 -0.20355132 0.092084244 -0.086513884 -0.12117759
-0.09657215 0.089701876 0.017437588 0.036909934 -0.14618772 -0.14516185 0.3026746 0.10091177
-0.061903257 -0.10085133 -0.24387583 0.07914594 0.21378085 -0.2584226 0.0557516 -0.108364776
0.046991758 -0.07671245 0.09281747 0.2164181 -0.020196998 -0.17875442 0.19363031 0.36781627
-0.31634948 0.21325259 -0.19907507 0.0226992 -0.11091709 0.13067399 0.093039736 -0.6343694
-0.06279122 -0.33962238 0.16479301 0.5751139 0.15937172 -0.13106094 0.071518265 0.06933211
0.04960885 0.35251084 0.2994722 0.18776512 0.22579142 0.28882 0.2080923 0.0009712176
-0.07653745 -0.17297341 -0.14701787 0.039673045 -0.17323698 -0.3498098 0.16094863 -0.1431745
0.07802243 0.42382085 0.2065269 -0.07518838 0.057083625 0.022852102 -0.2789066 -0.070527464
-0.35436815 0.0068175383 -0.087240174 -0.12811583 -0.28607944 0.15515894 0.041652855 -0.6406003
-0.18526955 -0.25214636 -0.19540198 -0.21123888 -0.3481144 -0.37728965 0.39916426 -0.3163351
-0.03387973 0.015173064 0.039459538 0.25965497 0.08846644 0.16222125 0.20878044 0.11375548
0.073821716 0.14479595 -0.19022682 0.20977375 -0.38986853 0.10747524 -0.014047542 0.14206937

linear.bias f4 [10]
00000000: 89b1 7b3e 4484 adbe e0b5 e53e d169 ce3e
00000010: 4083 f13e a54c ccbe 188a e8be c9ad 70bd
00000020: 1203 c6bc 3f45 06bf
0.24579443 -0.33889973 0.44865322 0.40315107 0.47170448 -0.39902225 -0.45417857 -0.058759484
-0.024171386 -0.5244941
