EMNIST/saved_model/emnist_model_state_dict.pth (torch, 146150 bytes, 14 tensors)

conv_block_1.0.weight f4 [32, 1, 2, 2]
0	0xbe5fa3a4	-0.21839768
1	0x402a4458	2.6604214
2	0xc036c7f7	-2.855955
3	0x3f07d567	0.5306
4	0xc0164752	-2.348103
5	0x402b2b24	2.674508
6	0xbf11118c	-0.566674
7	0xbfed2c4b	-1.8529142
8	0x400bd351	2.1847727
9	0xbf0b8b8e	-0.5450982
10	0xc028944d	-2.6340516
11	0x400bfc8d	2.1872895
12	0xbe8bf0ca	-0.27332145
13	0x3ef298b7	0.47382137
14	0xbf4cf9af	-0.80068487
15	0xc04c4184	-3.1914988
16	0xc01439d4	-2.3160295
17	0x3e5dafc3	0.21649079
18	0xbf1df9e1	-0.6170941
19	0xbe2a50b3	-0.16632347
20	0x3f7a09ca	0.97671187
21	0xc021627e	-2.5216365
22	0x3ffcf4af	1.9762172
23	0xbeb90395	-0.36135545
24	0x4025062c	2.5785017
25	0xbf56bc3e	-0.83880985
26	0xbf519f12	-0.8188335
27	0x3f16146a	0.586249
28	0x3faeeccb	1.3666013
29	0x3f7062b0	0.93900585
30	0x3f50b575	0.8152688
31	0xc02c47bd	-2.6918786
32	0xc014faef	-2.3278158
33	0x4014f5b3	2.3274963
34	0x401f8e3f	2.493057
35	0xbfbe4fae	-1.4868066
36	0x3f184d24	0.5949271
37	0xc022c1fb	-2.5430896
38	0xbfdf3217	-1.7437161
39	0x3ff308ec	1.8987098
40	0x3fce83e9	1.6134006
41	0x3f8fd56d	1.1237007
42	0x3f4b040d	0.79303056
43	0xbf2aa565	-0.6665862
44	0xbf49acf1	-0.7877951
45	0xc024d4e5	-2.575494
46	0x4035175e	2.8295512
47	0x3f295f5a	0.6616112
48	0xbf41a576	-0.756431
49	0x3eb2c71b	0.3491753
50	0x3fab1dc8	1.3368464
51	0x3ef6cebc	0.482046
52	0xbf0aa677	-0.54160255
53	0x3f39ec30	0.7262602
54	0x3fea9752	1.8327429
55	0xbf83c6eb	-1.029508
56	0xc01b3d3e	-2.425613
57	0xbf0913f7	-0.5354609
58	0xbf08fe0b	-0.5351264
59	0x3fe24da3	1.7679943
60	0x3f1b30b7	0.6062121
61	0x3f2a407f	0.66504663
62	0x3ea29e62	0.31761461
63	0x3eeb6885	0.4597818
64	0x3f03a4ec	0.51423526
65	0xbfc11ad3	-1.5086311
66	0x3e428c04	0.18998724
67	0x4002a6ca	2.04143
68	0x3f6b098b	0.91811436
69	0xbf76fb51	-0.9647723
70	0x3ffe4aa0	1.9866524
71	0xbff93000	-1.9467773
72	0xbde22ded	-0.11043916
73	0xbf82e91d	-1.022739
74	0x3e86a4a9	0.262975
75	0xbfd07942	-1.6287005
76	0x400e58b2	2.2241635
77	0xbfc20f5f	-1.5160941
78	0x3c5b27e2	0.013376208
79	0xbf55d23a	-0.83523905
80	0x4013663e	2.3031154
81	0x3dd7076a	0.10499461
82	0xbfc9afe1	-1.5756799
83	0xbf8285b4	-1.0197053
84	0xc02634bd	-2.596969
85	0x3daeb1e0	0.08530021
86	0x40234acb	2.55144
87	0xc01137db	-2.2690341
88	0xbf5747c3	-0.84093875
89	0x401f6a97	2.4908807
90	0x3f4d6dff	0.80245966
91	0xbf969faf	-1.1767482
92	0x400c027b	2.1876514
93	0xc00a5ae8	-2.1617985
94	0xc01440d0	-2.3164558
95	0x3f85bc47	1.0448083
96	0x3f205f9e	0.626459
97	0x402d9841	2.7124178
98	0xbfb25956	-1.3933513
99	0xc003f77f	-2.061981
100	0x3f62363a	0.88363993
101	0xbeebce35	-0.4605576
102	0x3f38d988	0.72206926
103	0x3e6980be	0.22803017
104	0xbfbac3a9	-1.4590961
105	0x3faddd03	1.3583072
106	0xc018765d	-2.3822243
107	0x401d047d	2.453399
108	0xc027c5fd	-2.6214592
109	0x3e9eebf8	0.31039405
110	0x3e8ce3f9	0.2751768
111	0x400c048d	2.1877778
112	0xbf8c427d	-1.0957791
113	0xc00cd5d5	-2.2005513
114	0x3fb433df	1.407833
115	0x4006ea7f	2.1080625
116	0x4004eda8	2.0770054
117	0xc012f277	-2.2960489
118	0xbeea6330	-0.457788
119	0x4001616b	2.021571
120	0xbf4fbde8	-0.8114915
121	0x3fba1e28	1.4540453
122	0xbf45a5e2	-0.7720624
123	0x3fb36cb1	1.4017545
124	0x3fc9d754	1.5768838
125	0xbecad72f	-0.39617297
126	0xbfdc0e26	-1.7191818
127	0x3ff08086	1.8789222

conv_block_1.0.bias f4 [32]
0	0xbeb39130	-0.35071707
1	0x3e77ade0	0.24187422
2	0x3dac3553	0.08408608
3	0x3db5a710	0.08869755
4	0xbed156a6	-0.4088642
5	0xbec182a2	-0.37794977
6	0x3ecf544c	0.40494
7	0x3cdfb840	0.027309537
8	0x3e4b358c	0.19844645
9	0xbe153fbd	-0.14575095
10	0x3e165aec	0.14683121
11	0x3efb747a	0.49112302
12	0x3cc35988	0.023846403
13	0xbe8ec528	-0.27884793
14	0x3e6787f0	0.2261045
15	0xbd24e1e0	-0.040254474
16	0xbe06e5d8	-0.13173616
17	0xbdea0268	-0.1142624
18	0xbe833442	-0.25625807
19	0x3e08b0ac	0.13348645
20	0x3eee12f6	0.4649884
21	0x3e8019cd	0.25019684
22	0xbcff9309	-0.031198042
23	0xbeda9608	-0.4269259
24	0xbe1f06dd	-0.15529962
25	0xbe03b534	-0.12862092
26	0x3e7eac0c	0.24870318
27	0x3d99549d	0.07486842
28	0xbeec7dea	-0.46189815
29	0xbda39601	-0.07987595
30	0x3e551168	0.20807421
31	0xbec299a2	-0.38007838

conv_block_1.1.weight f4 [32]
0	0x3fc3e619	1.5304595
1	0x404dba37	3.2144907
2	0x3fe05321	1.7525369
3	0x40ab1e31	5.3474355
4	0x408dbc91	4.4292684
5	0x3fb77b53	1.433451
6	0x3f89fe09	1.078065
7	0x3f9a9b06	1.2078559
8	0x3fc368a5	1.526631
9	0x4048f929	3.1402075
10	0x402a597d	2.661712
11	0x3fdbd1de	1.7173421
12	0x3f5f2973	0.8717262
13	0x3f663e93	0.8993923
14	0x4020dc57	2.5134485
15	0x3f58080e	0.8438729
16	0x3f8651db	1.049373
17	0x3fa9e07d	1.3271633
18	0x3f9deb38	1.2337408
19	0x3f94acd9	1.1615249
20	0x3fab5b5e	1.3387258
21	0x4066682b	3.600108
22	0x3f7d6299	0.98978573
23	0x3ffbefab	1.9682516
24	0x3fb8eb98	1.4446898
25	0x3f54c014	0.8310559
26	0x3fec33fd	1.8453366
27	0x3fb0839e	1.3790166
28	0x3fe5d5b3	1.7955841
29	0x4000f89c	2.015174
30	0x3f8aea01	1.0852662
31	0x3f82ea70	1.0227795

conv_block_1.1.bias f4 [32]
0	0x3e348d92	0.1763213
1	0xbfc2a0a1	-1.520527
2	0xc00d3251	-2.206196
3	0xbfbac01d	-1.4589878
4	0xbf385da7	-0.720179
5	0x3cbc1edc	0.022963934
6	0x3f3d35dc	0.7391031
7	0x3e7d56fc	0.24740213
8	0xbfd65326	-1.6744125
9	0xbfc7430f	-1.556734
10	0xc083df12	-4.1209803
11	0x3d81fed9	0.063474365
12	0x3f13e9a9	0.5777841
13	0x3f0e2c9b	0.5553681
14	0xbf740dd5	-0.95333606
15	0x3f2ba393	0.6704647
16	0x3f1ce40c	0.6128547
17	0x3b3b6d2a	0.0028599002
18	0x4067d6e1	3.6224902
19	0x3f2b2b5b	0.6686303
20	0xbe6e999d	-0.23300786
21	0xbfb35d92	-1.401293
22	0x3f1d023b	0.6133153
23	0xbd347206	-0.044054054
24	0x3e405d3f	0.1878557
25	0x3f12ac6e	0.57294357
26	0xbc53d613	-0.012929457
27	0x3ef222b3	0.47292098
28	0xbee0f508	-0.43936944
29	0xc045bfb8	-3.0898266
30	0x3f049278	0.51785994
31	0x3f389e81	0.7211686

conv_block_1.1.running_mean f4 [32]
0	0xbed115e2	-0.40837008
1	0x3fb6790d	1.4255692
2	0xbf13fe8b	-0.57810277
3	0x400ec8cf	2.2310064
4	0x3f9c635b	1.2217821
5	0xbed4d802	-0.4157105
6	0xbeecf4a9	-0.4628041
7	0xbe5a20ee	-0.21301624
8	0xbebb82be	-0.36623186
9	0x3f6169f8	0.8805232
10	0xbfbbd5a3	-1.4674572
11	0x3ede5ecf	0.43431708
12	0xbf458e1e	-0.7716998
13	0xbf55da4b	-0.83536214
14	0x3f9ce3d8	1.2257032
15	0xbf99a4f1	-1.2003461
16	0xbf5628b4	-0.8365586
17	0xbdd78d47	-0.105249934
18	0x3f942ad5	1.1575571
19	0x3e4d3bf4	0.20042402
20	0x3f0efa61	0.558508
21	0x3fc39238	1.5278997
22	0xbf426e27	-0.7594933
23	0x3e94f1fc	0.2909087
24	0xbdbe0d02	-0.09279825
25	0xbf688788	-0.90831804
26	0x3e83aae0	0.25716305
27	0xbc1b4a6d	-0.009478194
28	0xbf150eb9	-0.5822559
29	0xbf596f61	-0.84935576
30	0xbf02db67	-0.5111603
31	0xbf92a42d	-1.1456352

conv_block_1.1.running_var f4 [32]
0	0x403f26b5	2.9867375
1	0x401f5729	2.4896948
2	0x3f8058e1	1.0027124
3	0x40b63530	5.6939926
4	0x404f40b0	3.2383232
5	0x40092c8f	2.1433446
6	0x3f9e08e6	1.2346466
7	0x3fff7fa9	1.9960834
8	0x3f46e14c	0.77687526
9	0x3fcecefa	1.6156914
10	0x40515104	3.2705698
11	0x4045096c	3.0787
12	0x3f73729b	0.9509675
13	0x3f0f7f74	0.56053853
14	0x40418471	3.0237086
15	0x3faf36f1	1.3688642
16	0x3f888909	1.066682
17	0x3fe2c205	1.771546
18	0x401a3376	2.409391
19	0x3fa958f0	1.3230267
20	0x3fcbe778	1.5930014
21	0x4013542f	2.3020132
22	0x3f7f2319	0.9966293
23	0x3f7e0e23	0.9924032
24	0x4020cad2	2.5123792
25	0x3f499f59	0.7875877
26	0x4044e319	3.076361
27	0x402a0c7f	2.6570127
28	0x401eff81	2.4843447
29	0x3f82f5bd	1.0231243
30	0x3fc5805f	1.5429801
31	0x3f51f528	0.82014704

conv_block_2.0.weight f4 [64, 32, 3, 3]
0	0x3eb4b9df	0.35298058
1	0x3ea5a20c	0.32350194
2	0xbf16a842	-0.5885049
3	0xbd3163c8	-0.04330805
4	0x3d3a1a16	0.045435034
5	0x3ea00d95	0.31260362
6	0xbe2367a6	-0.15957507
7	0xbe1c747d	-0.15278812
8	0xbe9209aa	-0.28522998
9	0x3e716d72	0.23576906
10	0xbd653248	-0.055956155
11	0x3f02d439	0.51105076
12	0x3f2b2d0a	0.668656
13	0x3e01f77a	0.12692061
14	0xbe083e25	-0.13304956
15	0xbf30d9ab	-0.69082135
16	0x3cae8945	0.02130569
17	0xbe665902	-0.22494891
18	0x3e535064	0.20636135
19	0xbd446941	-0.04795194
20	0xbeb60b3f	-0.35555455
21	0x3e9a7dd7	0.30174133
22	0xbf03375e	-0.5125636
23	0xbe08197a	-0.13290969
24	0x3df086ca	0.11744459
25	0xbe749968	-0.23886645
26	0xbd89d9ca	-0.06730993
27	0xbdc9b003	-0.09848025
28	0x3e58d8ae	0.21176407
29	0xbe9b1145	-0.30286613
30	0xbd0753d8	-0.033038944
31	0x3f2ad9f3	0.66738814
32	0xbe774e25	-0.24150904
33	0x3d296aa5	0.04136147
34	0xbf0192c5	-0.5061458
35	0xbe8a045b	-0.26956448
36	0x3f8c4fcb	1.0961851
37	0xbf178348	-0.59184694
38	0x3f11cce2	0.5695325
39	0xbded7092	-0.11593737
40	0xbee1f323	-0.4413081
41	0xbc8a0d00	-0.016851902
42	0xbf0bae18	-0.5456252
43	0xbe688550	-0.22707105
44	0x3e18c98f	0.14920639
45	0x3dd39495	0.10331074
46	0xbe83b980	-0.25727463
47	0x3e1e1c42	0.15440467
48	0x3dc060d8	0.093934715
49	0xbe816712	-0.2527395
50	0x3f060219	0.5234695
51	0x3e8d7470	0.27627897
52	0xbe5f4ac8	-0.2180587
53	0xbf08d4eb	-0.5344989
54	0xbe965382	-0.29360586
55	0x3deaed85	0.114710845
56	0xbe45b333	-0.1930664
57	0xbe5045ec	-0.20339173
58	0x3ed9dd7d	0.42551795
59	0x3e177189	0.14789404
60	0xbed92886	-0.4241373
61	0xbe2380d7	-0.15967117
62	0xbf1d08c3	-0.61341494
63	0xbf08284a	-0.53186476
64	0xbe678295	-0.22608407
65	0xbea6f16e	-0.3260607
66	0xbe395880	-0.18100166
67	0x3dd60427	0.10450011
68	0x3e5c5329	0.21516098
69	0x3eb9a45a	0.36258203
70	0xbe9133e6	-0.28359908
71	0x3de62acc	0.112386316
72	0xbf280dc5	-0.6564601
73	0x3df7e7eb	0.12104782
74	0xbe8a5a7b	-0.27022156
75	0xbf6e5007	-0.9309086
76	0xbf4ae631	-0.79257494
77	0x3af8329f	0.0018935985
78	0x3d919c24	0.071098596
79	0xbe57a90b	-0.21060579
80	0x3d035013	0.032058787
81	0x3ea53b05	0.3227159
82	0x3eeb04b1	0.45902017
83	0x3de5d656	0.11222522
84	0xbec09cd6	-0.37619656
85	0xbe1dff0d	-0.15429325
86	0xbe8e020d	-0.2773594
87	0x3e1b235a	0.15150204
88	0x3e6021ee	0.21887943
89	0x3d75d554	0.0600179
90	0xbf1e0340	-0.6172371
91	0xbe0308e1	-0.12796356
92	0x3e869ad2	0.26289994
93	0xbed570b7	-0.41687557
94	0x3e73ecea	0.23820844
95	0x3e0c4a87	0.13700305
96	0x3dde0d45	0.10842375
97	0xbe075d52	-0.13219193
98	0xbeccac44	-0.39975178
99	0xbf1b1608	-0.6058049
100	0x3e776e1a	0.24163094
101	0x3f07b0a7	0.53003925
102	0xbeb32a66	-0.34993285
103	0x3f204a5f	0.6261348
104	0xbec4b1f0	-0.38417006
105	0x3e9f968d	0.3116955
106	0x3e67f257	0.22651039
107	0xbdf21eca	-0.11822279
108	0x3dfbcc53	0.12294831
109	0xbdc0041d	-0.093757845
110	0xbd27d443	-0.040973913
111	0xbf14525a	-0.5793816
112	0xbe7116e4	-0.23543888
113	0x3e1e3a9b	0.15452044
114	0x3ed14099	0.40869597
115	0xbed2bb7d	-0.41158667
116	0xbe1a2100	-0.15051651
117	0x3e1ae31b	0.15125696
118	0x3cf29954	0.029614128
119	0xbe8d1f30	-0.27562857
120	0xbe86e0f5	-0.26343504
121	0x3d80aac5	0.06282572
122	0x3de6fc49	0.11278588
123	0x3e912444	0.2834798
124	0xbf04f448	-0.51935244
125	0xbe31aefb	-0.17351906
126	0xbec05ba2	-0.3756991
127	0xbe29f6fa	-0.1659812
128	0x3d5d2fa8	0.054000527
129	0xbecae604	-0.39628613
130	0xbc6da734	-0.014505196
131	0x3dea707d	0.11447237
132	0x3e4988d5	0.19681104
133	0x3ec631e0	0.38709927
134	0x3e5f09a4	0.21781021
135	0x3d0217c5	0.03176095
136	0x3eb2a177	0.34888813
137	0x3d7017fb	0.05861662
138	0xbc38c864	-0.011278246
139	0xbf06cbd9	-0.52654797
140	0x3cab97a9	0.02094634
141	0xbe32b964	-0.17453533
142	0xbe6c6d62	-0.23088601
143	0xbdd18143	-0.10229733
144	0xbce44c6d	-0.027868474
145	0x3de7f465	0.113259114
146	0x3c9d6cbe	0.019216891
147	0xbeee70bd	-0.46570387
148	0xbf027ec5	-0.50974685
149	0xbea46894	-0.32111037
150	0x3ed5ff6e	0.4179644
151	0xbe66b3fb	-0.22529595
152	0xbeae65fd	-0.34062186
153	0x3ea9a5ed	0.33134404
154	0x3d3c16d7	0.04592022
155	0xbe5040c2	-0.20337203
156	0x3dcc9357	0.0998904
157	0xbe9a63a0	-0.30154133
158	0xbeedf889	-0.4647868
159	0x3e015010	0.12628198
160	0xbf23cfe5	-0.63989097
161	0xbef9f4c2	-0.48819548
162	0x3e20d867	0.15707551
163	0xbd238293	-0.039919447
164	0xbc878b98	-0.016546056
165	0xbdb95b09	-0.09050567
166	0xbe958ec0	-0.29210472
167	0xbec6333b	-0.3871096
168	0xbf1437d5	-0.5789769
169	0xbc3fdcca	-0.011710355
170	0xbf0b1694	-0.54331326
171	0xbf07e459	-0.53082806
172	0x3e214a79	0.15751065
173	0x3dc1b5f9	0.09458537
174	0x3baa73ec	0.0052018072
175	0xbcf0dff5	-0.029403666
176	0xbeed2f03	-0.4632493
177	0xbddbc175	-0.107302584
178	0xbed9f665	-0.42570797
179	0xbea4baed	-0.32173863
180	0xbd061d4e	-0.03274279
181	0x3db537e9	0.08848555
182	0xbe9a234a	-0.30105048
183	0xbdff7d51	-0.12475074
184	0x3e4518d5	0.19247754
185	0x3e2a2141	0.16614248
186	0x3e53d5ff	0.20687102
187	0x3e3e4062	0.18579248
188	0x3ef2d693	0.47429332
189	0xbe9f73d1	-0.31143048
190	0x3d20d1eb	0.039262693
191	0x3e6fe165	0.23425825
192	0x3da3bee7	0.07995396
193	0xbefd54cf	-0.49478766
194	0xbe31f497	-0.1737846
195	0xba1122b0	-0.000553648
196	0xbf30ebf1	-0.6911002
197	0xbda5c93f	-0.08095025
198	0xbeb11ef5	-0.3459393
199	0xbcdca68d	-0.026934886
200	0x3e2f7030	0.1713264
201	0xbeec62b1	-0.46169046
202	0x3eab67e5	0.33477703
203	0xbd2a94de	-0.041645877
204	0xbd938bb6	-0.07204382
205	0xbe98bb26	-0.29830283
206	0xbd80923d	-0.06277893
207	0xbe0adb49	-0.13560213
208	0xbebb6017	-0.36596748
209	0x3ecf9bb8	0.4054849
210	0x3dd039ce	0.10167275
211	0xbef4509e	-0.47717756
212	0x3d0a07b5	0.033698756
213	0xbdc7adec	-0.0974997
214	0xbf41b968	-0.7567353
215	0xbf07edc5	-0.5309718
216	0x3eb2f6cf	0.34953925
217	0xbd98e77f	-0.074660294
218	0x3f12ac2c	0.57293963
219	0xbd83b568	-0.06431085
220	0xbe746f20	-0.23870516
221	0xbe2bbe64	-0.16771847
222	0x3e66d6c8	0.2254287
223	0xbd24a0d4	-0.04019244
224	0xbe2c24ed	-0.16810961
225	0x3d6199a4	0.055078164
226	0x3e35f5ff	0.17769621
227	0xbb3604d8	-0.0027773883
228	0xbe5ecef4	-0.21758634
229	0x3e9d053c	0.30668056
230	0x3dd6e9e8	0.10493833
231	0xbcdcac33	-0.02693758
232	0xbebae964	-0.36506188
233	0xbe2503fc	-0.16114801
234	0x3f094ef1	0.5363608
235	0xbe5ad2a9	-0.21369423
236	0xbeb1a52f	-0.34696338
237	0x3cbb7410	0.022882491
238	0x3d68e834	0.05686207
239	0xbf187a3b	-0.5956151
240	0x3d78ff8d	0.060790587
241	0xbea9107d	-0.33020392
242	0x3dd2efaf	0.10299622
243	0xbe97f11f	-0.29676148
244	0x3e93f41a	0.28897172
245	0x3e8928bf	0.267889
246	0xbf74a631	-0.9556609
247	0xbd93aae5	-0.0721033
248	0xbf0d3fd9	-0.5517555
249	0xbe92bb58	-0.28658557
250	0xbe426458	-0.1898359
251	0x3dc231fb	0.09482189
252	0xbf5843de	-0.8447856
253	0xbdb452c6	-0.0880485
254	0xbeb90e46	-0.36143702
255	0xbed326a5	-0.4124042

conv_block_2.0.bias f4 [64]
0	0xbc82a0f9	-0.015945898
1	0x3d184875	0.037178475
2	0x3d2cfbdb	0.042232376
3	0xbd12683c	-0.035743937
4	0x3c9dedcb	0.019278428
5	0x3cf9298e	0.030415323
6	0x3ba7d408	0.0051217116
7	0x3cabc52d	0.020968044
8	0xbd53bf72	-0.05169625
9	0xba2af67d	-0.0006521715
10	0xbd634de6	-0.05549421
11	0xbd139d59	-0.03603873
12	0x3d0a2799	0.03372917
13	0x3d482813	0.048866343
14	0xbaf2e675	-0.0018531816
15	0xb95c15f2	-0.0002098901
16	0xbcf4588c	-0.029827379
17	0x3d21409f	0.039368268
18	0x3c35d0c7	0.01109714
19	0x3b326924	0.0027223313
20	0xbcebabdc	-0.028768472
21	0x3d602195	0.054719526
22	0x3d332f94	0.043746546
23	0xbd345c1b	-0.04403315
24	0x3d6612a5	0.056170125
25	0x3d4b195b	0.049584728
26	0xbb62f715	-0.0034632136
27	0xbd1de3e2	-0.038547404
28	0xbbba7c43	-0.0056910827
29	0x3bf826ce	0.0075729853
30	0x3d347b15	0.044062693
31	0xbd6b0f3b	-0.05738757
32	0xbd1bd3d0	-0.038043797
33	0xbc80d34c	-0.015725754
34	0x3d6d48d7	0.057930794
35	0xbcc45eef	-0.02397105
36	0xbcc8d818	-0.024517104
37	0x3d2cbd69	0.042172823
38	0xba9b8dbd	-0.0011867803
39	0xb9c978f6	-0.0003842783
40	0x3bdeb285	0.0067961835
41	0xbcc4e76c	-0.024036132
42	0xbd5489ae	-0.051889114
43	0x3bbe420f	0.0058062146
44	0x3b186be9	0.002325768
45	0xbd1c73f0	-0.038196504
46	0x3bcaa18f	0.00618381
47	0x3d302440	0.04300332
48	0x3b9378c2	0.0045004794
49	0xbd5f1e2f	-0.054472145
50	0xbca28c70	-0.019842356
51	0xbcc581b9	-0.024109708
52	0x3d2811cf	0.04103261
53	0xbd5b9413	-0.05360801
54	0x3cd1594e	0.02555528
55	0x3d3742b9	0.044741366
56	0xbd53b19d	-0.051683057
57	0xbd668609	-0.05628017
58	0xbcb117b8	-0.021617755
59	0xbce282ef	-0.027650325
60	0x3aaacac7	0.0013030403
61	0x3d2bf3f5	0.041980702
62	0x39a9774d	0.00032323078
63	0x3ce651cb	0.028115174

conv_block_2.1.weight f4 [64]
0	0x3fc2bc67	1.5213746
1	0x3f943a21	1.158024
2	0x3fb0ec11	1.3822042
3	0x3f863b5d	1.0486866
4	0x3fc66312	1.5498984
5	0x40017de1	2.023308
6	0x3f8b1d3c	1.0868297
7	0x3fd6abc5	1.677117
8	0x3f974ef1	1.1820966
9	0x3f4d0fce	0.8010224
10	0x3f71bb96	0.9442686
11	0x3f3d519d	0.73952657
12	0x3f6043cc	0.8760345
13	0x3f382827	0.7193627
14	0x3fa2d069	1.2719852
15	0x3f88aef6	1.0678394
16	0x3fad15f7	1.3522328
17	0x3f5058e3	0.8138563
18	0x3f67f4da	0.9060799
19	0x3f58f314	0.8474591
20	0x3fb59408	1.41858
21	0x3fa4c509	1.287263
22	0x3fa5f51a	1.2965424
23	0x3f4a11ee	0.7893361
24	0x3f4d1b57	0.8011984
25	0x3fc0d2b7	1.5064305
26	0x3faf8608	1.3712778
27	0x3fca166f	1.5788096
28	0x3f850394	1.0391717
29	0x3fb48804	1.4104009
30	0x3f8b798a	1.0896466
31	0x3f97f67b	1.1872095
32	0x3f8b1184	1.086472
33	0x3fb2f5b9	1.3981239
34	0x3f948cb9	1.1605445
35	0x3fa13ca2	1.2596629
36	0x3f88bfb5	1.0683504
37	0x3fb035c1	1.3766404
38	0x3fa6f4d1	1.3043462
39	0x3fc6f358	1.5543013
40	0x3f92fb99	1.1483032
41	0x3fb5d120	1.4204445
42	0x3fad38a5	1.3532912
43	0x3f929baa	1.1453755
44	0x3fdd28e5	1.7278105
45	0x3fb4e5d8	1.4132643
46	0x3fb7c6f9	1.4357597
47	0x3fc5278c	1.5402694
48	0x3f4c40a5	0.7978614
49	0x3f836e64	1.0268064
50	0x3f8f9fce	1.1220644
51	0x3f85e202	1.0459597
52	0x3fe4e3ff	1.7882079
53	0x3fbe94ce	1.4889162
54	0x3fbd35df	1.4782065
55	0x3f86aab6	1.0520847
56	0x3fd3eff1	1.6557599
57	0x3f62f33b	0.8865239
58	0x3fa0f0db	1.2573503
59	0x3f378c45	0.7169841
60	0x3f9ad1f7	1.2095326
61	0x3f8177cd	1.0114685
62	0x3f2e6111	0.6811686
63	0x3fa38943	1.2776264

conv_block_2.1.bias f4 [64]
0	0xbf489ea7	-0.78367084
1	0xbf4be7cd	-0.79650575
2	0xc00b5fad	-2.1777146
3	0xbec15cb1	-0.3776603
4	0xc001bfc3	-2.0273292
5	0xbfbb922d	-1.4653984
6	0xbf8aa8d0	-1.0832767
7	0xbf97f67d	-1.1872097
8	0xbf4c6d32	-0.7985412
9	0xbed12df5	-0.40855375
10	0xbfa68974	-1.3010697
11	0xbf6c8105	-0.9238437
12	0xbf634c8e	-0.8878869
13	0xbf265e12	-0.6498729
14	0xbfb152a1	-1.3853341
15	0xbfcb4a2a	-1.5882008
16	0xbf48cb9c	-0.78435683
17	0xbf2eda7c	-0.6830213
18	0xbf571cb0	-0.8402815
19	0xbf1067a1	-0.56408125
20	0xc00da90f	-2.2134435
21	0xbff0c873	-1.8811172
22	0xbf906919	-1.1282073
23	0xbf26a6f3	-0.65098494
24	0xbf2567ce	-0.6461152
25	0xbf3fc85f	-0.7491512
26	0xbffa2062	-1.9541132
27	0xbf952a8d	-1.165361
28	0xbf70a99a	-0.9400879
29	0xbff3dcee	-1.9051797
30	0xbf845f88	-1.0341654
31	0xbfaad414	-1.3345971
32	0xbfd106af	-1.6330165
33	0xbf6d66cc	-0.9273498
34	0xbf8cd97d	-1.1003872
35	0xbfea4f37	-1.8305424
36	0xbfe26bcb	-1.7689146
37	0xbfc415a1	-1.5319101
38	0xbfbaff73	-1.4609207
39	0xc0159712	-2.3373456
40	0xbfe7e53d	-1.8116833
41	0xbfa8ab2a	-1.3177235
42	0xbf8c4bf0	-1.0960674
43	0xbfaad766	-1.3346984
44	0xbf5cd8ef	-0.86268514
45	0xbf7a9524	-0.9788382
46	0xbfa1ff03	-1.2655948
47	0xbff0aee6	-1.8803375
48	0xbf31f723	-0.69517726
49	0xbfe8df00	-1.8193054
50	0xbf9fe04a	-1.2490323
51	0xbfa16b17	-1.2610806
52	0xbf91fcb3	-1.1405243
53	0xbf3e4c2c	-0.7433498
54	0xbfe2b9b2	-1.771292
55	0xbfbed012	-1.4907248
56	0xbff1d21c	-1.8892245
57	0xbf84fd9d	-1.0389897
58	0xbfd8bca3	-1.6932567
59	0xbe23f500	-0.16011429
60	0xbf667971	-0.90029055
61	0xbf021f7a	-0.5082928
62	0xbf1f0d63	-0.621298
63	0xbfd9462c	-1.697454

conv_block_2.1.running_mean f4 [64]
0	0xc1a86610	-21.049835
1	0xc0aed820	-5.4638824
2	0x40f51588	7.6588783
3	0xc10d6592	-8.837297
4	0x40633c74	3.5505648
5	0xc1b8ae0f	-23.08499
6	0xc18f7dd7	-17.936445
7	0xc1a910b8	-21.133163
8	0xc1c490d8	-24.570724
9	0xc1394092	-11.578264
10	0x418afe6e	17.374233
11	0x414a40c3	12.640811
12	0x40e34dca	7.1032457
13	0x4103527f	8.207641
14	0xc1306dad	-11.026776
15	0xbecc442c	-0.3989576
16	0xc11c4fc2	-9.769472
17	0x410b63c6	8.711859
18	0xc12b1b9e	-10.6942425
19	0x41a4ec38	20.615341
20	0x41945f07	18.5464
21	0x3e53e177	0.20691477
22	0xc09d63f1	-4.91845
23	0x4060937b	3.5090015
24	0xc10d6984	-8.838261
25	0xc151dcbc	-13.11639
26	0x4055ebd9	3.34252
27	0xc1a78d4f	-20.943998
28	0xc0da65a2	-6.8249063
29	0x40381085	2.8760083
30	0xc06186a4	-3.5238428
31	0x40b8a466	5.770068
32	0x3f3dd2a0	0.74149513
33	0xc14cfc9e	-12.811674
34	0xc10224a9	-8.13395
35	0x40e15365	7.04143
36	0x4061862b	3.523814
37	0xbf0d591f	-0.55214113
38	0xbfb54583	-1.4161838
39	0x4115d109	9.363534
40	0x40f11570	7.533867
41	0xc026cd56	-2.6062827
42	0x40e6a70a	7.2078905
43	0xc0ea3126	-7.3184996
44	0xc164e355	-14.305501
45	0xc1348c5a	-11.2842655
46	0x40262974	2.59628
47	0x41b120ba	22.14098
48	0xc1157550	-9.341141
49	0x3fc5335e	1.5406301
50	0xc0d7c39a	-6.742627
51	0x41156e28	9.339394
52	0xc14ea8cb	-12.916209
53	0xc1b423a5	-22.517405
54	0xbf86a3dc	-1.0518756
55	0x40b0f004	5.529299
56	0x4130ec7b	11.0577345
57	0x408a8e9a	4.3299074
58	0x41bcb099	23.58623
59	0xc145d867	-12.365333
60	0xc090688d	-4.5127625
61	0xc111d23c	-9.113827
62	0x4098e73b	4.7782264
63	0x4130c65c	11.048428

conv_block_2.1.running_var f4 [64]
0	0x42e9e8bc	116.95456
1	0x42ad091f	86.517815
2	0x42b30ee7	89.529106
3	0x42b99693	92.79409
4	0x42c597e6	98.79668
5	0x43204b98	160.29529
6	0x42aceb3c	86.45944
7	0x42f7c24d	123.87949
8	0x42cbb82c	101.85971
9	0x42896055	68.68815
10	0x428870b3	68.220116
11	0x42400413	48.00398
12	0x429585f2	74.76161
13	0x423253c8	44.581818
14	0x426323ec	56.78508
15	0x427be82c	62.97673
16	0x42ee5183	119.1592
17	0x429b7ccf	77.74377
18	0x428bed27	69.96319
19	0x43027072	130.43924
20	0x42a5401c	82.62521
21	0x425ca750	55.16339
22	0x42bbf590	93.979614
23	0x42725c9f	60.59045
24	0x423bdd6c	46.966232
25	0x42bd10ac	94.53256
26	0x4270220e	60.033257
27	0x43085f28	136.3717
28	0x42ace326	86.44365
29	0x429f7fe9	79.749825
30	0x428e6b85	71.21
31	0x4272096a	60.509193
32	0x42864aac	67.14584
33	0x4319d43d	153.82906
34	0x428666b3	67.200584
35	0x4287dfe0	67.937256
36	0x425b0511	54.754948
37	0x42acca34	86.39493
38	0x4285ff6e	66.998886
39	0x428554b3	66.66543
40	0x428c4318	70.13104
41	0x43057f76	133.4979
42	0x42833fbd	65.62449
43	0x4238d730	46.210144
44	0x430b727c	139.4472
45	0x43235ec4	163.37018
46	0x43039d5c	131.61469
47	0x42d08111	104.25208
48	0x42632150	56.78253
49	0x4240092b	48.008953
50	0x42a1d342	80.91261
51	0x42b8e037	92.43792
52	0x430a8c84	138.54889
53	0x431a76b6	154.46371
54	0x429fe2b2	79.942764
55	0x4253fcdb	52.99693
56	0x42bba8e0	93.829834
57	0x426695c4	57.646255
58	0x43095d2f	137.364
59	0x42cd47cb	102.64022
60	0x42aa84b4	85.259186
61	0x42cb64ec	101.69711
62	0x422c7d9e	43.122673
63	0x42e042a1	112.130135

classifier.1.weight f4 [62, 256]
0	0xbf51a7b4	-0.8189652
1	0xbb81b1f1	-0.00395798
2	0x3db50cd0	0.088403344
3	0x3e994adf	0.29939935
4	0xbd6fb962	-0.058526404
5	0xbd58811a	-0.052857496
6	0x3d327255	0.043566067
7	0xbe865fac	-0.26244867
8	0x3ef83fca	0.48486167
9	0x3f105782	0.56383526
10	0x3eaaabd4	0.3333422
11	0x3f266ad3	0.6500675
12	0xbe5f8d49	-0.2183124
13	0xbe629921	-0.22128727
14	0x3e8cf405	0.27529922
15	0x3f1d7db0	0.6151991
16	0x3db628a7	0.088944726
17	0x3e9270c6	0.28601664
18	0xbefe71a5	-0.4969608
19	0x3fb0915d	1.3794361
20	0x3f327902	0.69715893
21	0xbeea2c67	-0.45737
22	0xbe81df18	-0.2536552
23	0xbf52ade9	-0.82296616
24	0xbd9e7d55	-0.07738749
25	0xbf5d7d50	-0.86519337
26	0x3e9434db	0.28946576
27	0xbefb56f5	-0.4908978
28	0x3e752d45	0.2394305
29	0x3edb0b44	0.42782032
30	0xbc80ca0c	-0.015721343
31	0x3e31afbf	0.17352198
32	0xbe396082	-0.18103221
33	0x3e3860f1	0.1800573
34	0xbe7cd7ae	-0.2469165
35	0x3e7b6c66	0.2455307
36	0x3dbf7bb8	0.09349769
37	0x3e5ce346	0.21571073
38	0x3e6148e4	0.22000462
39	0x3f27dd69	0.6557222
40	0xbe14da61	-0.1453643
41	0x3e051629	0.12996735
42	0xbdac0ca6	-0.0840085
43	0xbf34960f	-0.7054147
44	0xbebb7dac	-0.36619318
45	0x3f27f9cd	0.6561554
46	0x3ece51fe	0.4029693
47	0x3e772a9d	0.2413735
48	0xbf683c31	-0.90716845
49	0xbdc9dfba	-0.098571256
50	0x3f86115a	1.0474045
51	0x3eceb82b	0.40374884
52	0xbe79857d	-0.24367328
53	0xbf1b41d5	-0.60647327
54	0x3ea1d20e	0.31605572
55	0xbdea7d85	-0.11449722
56	0x3ebf712c	0.3739103
57	0xbe2c1cd2	-0.16807869
58	0x3d56b68a	0.052420177
59	0x3dbf07e9	0.093276806
60	0x3e956d27	0.2918484
61	0xbf3cc6ea	-0.7374102
62	0x3f083dcc	0.53219295
63	0xbeaa682f	-0.3328261
64	0xbf8c6134	-1.0967164
65	0x3efd8092	0.49512154
66	0x3e4aa0d3	0.19787912
67	0xbf062a16	-0.5240797
68	0xbd13fdf8	-0.036130875
69	0xbcb8dcca	-0.022566218
70	0x3d54934b	0.051898282
71	0xbf34aa4a	-0.7057234
72	0xbe5598dc	-0.20859092
73	0x3f4b5edf	0.79441637
74	0x3f0e3eec	0.5556476
75	0xbe0e6356	-0.13905081
76	0xbecce816	-0.40020818
77	0xbd3b7af7	-0.045771565
78	0xbe6dced2	-0.23223427
79	0x3e372a15	0.17887147
80	0x3e36d9e9	0.17856564
81	0xbe9ab0db	-0.30213055
82	0x3e99effb	0.30065903
83	0xbda9f486	-0.08298592
84	0x3d148ea1	0.036268834
85	0xbe5f2d43	-0.2179461
86	0xbe507dd7	-0.20360504
87	0xbeef223a	-0.467058
88	0x3f0efd51	0.5585528
89	0xbc8d58fe	-0.017254349
90	0x3e8449af	0.25837466
91	0xbe7b4017	-0.24536167
92	0xbefcc9be	-0.49372667
93	0xbe77f20f	-0.24213432
94	0x3d9f5473	0.07779779
95	0xbe8aca0c	-0.27107275
96	0x3cfaccba	0.0306152
97	0xbe4f92ca	-0.2027084
98	0x3d9eed8c	0.07760152
99	0x3f3f44f5	0.74714595
100	0x3ec3a7d1	0.3821397
101	0xbe3e9dc6	-0.18614873
102	0x3e9e176f	0.30877253
103	0x3cfb003a	0.030639756
104	0x3e11075f	0.14162968
105	0xbf1bacf6	-0.6081079
106	0x3eb68772	0.35650212
107	0xbe9b926c	-0.3038515
108	0xbe9c82ef	-0.30568644
109	0xbe26a0d8	-0.16272295
110	0xbc96e523	-0.018419808
111	0xbf36403f	-0.7119178
112	0xbe3f3622	-0.18672994
113	0x3e013d95	0.12621148
114	0xbe605076	-0.21905693
115	0xbf8fa75f	-1.1222953
116	0xbe7f3fb6	-0.24926648
117	0xbeb6b394	-0.35683882
118	0xbe8cc31d	-0.2749261
119	0xbdbd06ae	-0.0922979
120	0x3e9c21b0	0.30494452
121	0x3e0000c6	0.12500295
122	0xbf1eeb5c	-0.6207788
123	0xbd782a97	-0.06058749
124	0xbe85b69e	-0.26115888
125	0xbeb10737	-0.34575817
126	0x3e71cc70	0.23613143
127	0x3f3bc2fd	0.73344404
128	0x3e93a8d0	0.2883973
129	0xbe2e9de5	-0.1705242
130	0x3e89ecf8	0.26938605
131	0xbec10288	-0.37697244
132	0x3f5f9a41	0.8734475
133	0xbc966450	-0.01835838
134	0xbeae9b52	-0.34102875
135	0x3e966059	0.29370382
136	0x3e6afaa6	0.22947177
137	0xbe56397b	-0.20920365
138	0xbe148df4	-0.14507276
139	0x3f3237b3	0.6961624
140	0xbe10757c	-0.14107317
141	0xbedf3519	-0.43595198
142	0xbf6120c1	-0.87940603
143	0xbd4b4dc1	-0.0496347
144	0xbe5e6c33	-0.21720962
145	0x3e99f5e7	0.3007042
146	0xbe2dbd80	-0.1696682
147	0xbdefcb0f	-0.11708652
148	0xbe5fdbd7	-0.21861206
149	0xbe4930d1	-0.19647528
150	0xbe97ea32	-0.29670864
151	0x3dc403a5	0.09571008
152	0xbe5068cd	-0.20352478
153	0x3d62b5ef	0.055349287
154	0xbeb3ad2f	-0.35093066
155	0x3e128c08	0.1431123
156	0x3e1a9af6	0.15098175
157	0xbf3771ab	-0.7165782
158	0x3d1a7de1	0.037717704
159	0xbe0dd5ca	-0.13851085
160	0x3e63fd50	0.222646
161	0xbe52e4a7	-0.20595036
162	0x3f0219ab	0.50820416
163	0xbe2e9987	-0.17050754
164	0x3e04c14b	0.1296436
165	0xbecaf4b3	-0.39639816
166	0xbf2717a7	-0.65270466
167	0xbf961cc4	-1.1727529
168	0x3e164881	0.14676096
169	0xbf181b24	-0.59416413
170	0xbcf79e57	-0.03022687
171	0xbe086a6e	-0.1332185
172	0x3debe843	0.1151891
173	0xbe96e1ac	-0.2946905
174	0xbe45b77d	-0.19308276
175	0xbe1ab548	-0.15108216
176	0xbea00201	-0.3125153
177	0xbde3761d	-0.11106513
178	0xbda644e2	-0.08118607
179	0x3e4e65dd	0.20156045
180	0x3de26e1e	0.110561594
181	0xbc44921c	-0.011997726
182	0xbe1bd541	-0.15218069
183	0x3f144974	0.5792458
184	0xbc2e3b8d	-0.010634315
185	0xbf2eac1c	-0.6823137
186	0x3e18c386	0.14918336
187	0xbfb0701d	-1.3784214
188	0x3ea7e5e4	0.3279258
189	0xbe8b8290	-0.2724805
190	0x3e520092	0.2050803
191	0xbf1dc0e8	-0.61622477
192	0xbf2f885d	-0.6856745
193	0x3f556569	0.83357865
194	0xbd3133c8	-0.043262273
195	0xbfbb68db	-1.4641374
196	0x3e9a1ea2	0.30101496
197	0x3f0ba43b	0.5454747
198	0xbeac79ef	-0.33686778
199	0x3f01e50a	0.5074011
200	0xbe8c65fc	-0.27421558
201	0x3eefe00e	0.46850628
202	0x3d4114c6	0.04713895
203	0xbcb72803	-0.022357946
204	0x3ea945ed	0.33061162
205	0xbeb0adf0	-0.34507704
206	0x3efc9152	0.4932962
207	0xbf0626da	-0.5240303
208	0xbe921a9b	-0.28535923
209	0x3d42dcdb	0.047573905
210	0x3db11160	0.08645892
211	0x3ef32a53	0.47493228
212	0x3e8f643b	0.28006157
213	0x3eb74f32	0.3580261
214	0x3e066775	0.13125403
215	0xbc2f7737	-0.010709575
216	0xbe9e97b2	-0.3097511
217	0xbdfa212f	-0.122133605
218	0x3ca13c9d	0.019682223
219	0xbd408a14	-0.04700668
220	0x3d26d2a6	0.040728234
221	0xbd0dd0d4	-0.034622982
222	0x3ef7315a	0.4827984
223	0x3ca2b816	0.01986317
224	0x3ec7570a	0.38933593
225	0x3ea28234	0.31739962
226	0xbe9daa89	-0.3079417
227	0xbf099e3b	-0.53757066
228	0xbf2f3f4b	-0.6845595
229	0x3f804d22	1.0023539
230	0xbee74222	-0.45167643
231	0x3e70eb81	0.23527338
232	0x3e322601	0.1739731
233	0xbd17defa	-0.03707788
234	0xbe91072f	-0.28325793
235	0x3ef5b515	0.47989717
236	0xbeccdd89	-0.40012768
237	0xbd5773e2	-0.05260075
238	0xbefc9473	-0.49332008
239	0x3ef67ea9	0.4814351
240	0x3d60cba5	0.05488171
241	0xbe67c2a9	-0.2263285
242	0x3e23c91d	0.15994687
243	0xbe26b828	-0.16281188
244	0xbea997d1	-0.3312364
245	0x3d5256d1	0.051352326
246	0x3e0ae1e7	0.13562737
247	0xbf24504d	-0.6418503
248	0xbed7dc79	-0.42160395
249	0x3f1dd43e	0.6165198
250	0xbdc4cadb	-0.09609004
251	0x3d41c77e	0.04730939
252	0x3daf2789	0.085524626
253	0x3e6f857b	0.23390763
254	0xbe70e597	-0.23525082
255	0xbf857ecc	-1.042932

classifier.1.bias f4 [62]
0	0x3ff12417	1.8839139
1	0x403372c4	2.8038797
2	0xbeb3528a	-0.3502391
3	0xbeb04467	-0.34427187
4	0x3f1f4872	0.6221992
5	0x3f9b6a77	1.2141865
6	0x3e5ad0e0	0.21368742
7	0xbf697321	-0.911913
8	0x401744cc	2.363574
9	0x3ea7246d	0.32644978
10	0x3c83e570	0.016100615
11	0x3f4c5e97	0.7983183
12	0xbf62c3e0	-0.8858013
13	0x3f49f457	0.7888846
14	0x3f729f84	0.9477465
15	0xbf5eb8f0	-0.8700094
16	0xbeffb696	-0.4994399
17	0x3f435759	0.76305157
18	0x3f0f1d87	0.5590443
19	0xbefc0e71	-0.49229768
20	0xbed45017	-0.41467354
21	0xbf04575e	-0.5169581
22	0x3f4a48d4	0.79017377
23	0x3dd23b31	0.10265196
24	0x3eb845c1	0.35990718
25	0xbfe3c74a	-1.7795193
26	0xbdea0592	-0.11426844
27	0xbe37cdc5	-0.17949589
28	0xbf5d3a0c	-0.864167
29	0x3dcf3065	0.101166524
30	0x3f61b886	0.88172185
31	0x3e8ba90b	0.27277407
32	0xbf081149	-0.53151375
33	0xbf4d695e	-0.802389
34	0xbfb352aa	-1.4009602
35	0xbf8d76f5	-1.1051928
36	0x3eb8b000	0.36071777
37	0x3f106916	0.5641035
38	0xbf63f6e2	-0.8904859
39	0xbf2bd659	-0.67123944
40	0x3eec9a85	0.4621164
41	0xbf07eebb	-0.5309865
42	0x3e8f56a1	0.2799578
43	0xbf09178e	-0.53551567
44	0xbea9e034	-0.33178866
45	0xbed8f7ef	-0.42376658
46	0xbdfaaf63	-0.122404836
47	0xbe140584	-0.14455229
48	0xbf052416	-0.5200819
49	0x3ea4e734	0.32207644
50	0xbf45154d	-0.7698563
51	0x3f8a8c52	1.0824072
52	0xbf178b0e	-0.59196556
53	0xbf4053e9	-0.75128037
54	0xbfa8c41e	-1.318485
55	0xbf6d33ec	-0.9265735
56	0xbf0c2fc1	-0.54760367
57	0x3e174ced	0.14775439
58	0x3eaa25bc	0.33231914
59	0x3ecf6e5a	0.4051388
60	0x3f201c8a	0.6254355
61	0x3f3f62f6	0.7476038
